outputs/models/vae_gru_drumlab_mse_1_128_5.model (torch_old, 860184 bytes, 22 tensors)

weight f4 [128, 27]
00000000: b978 5c3f 0f0e 1f3f dc1c f03e 88f7 f43d
00000010: ebc5 6c3f 2c62 653e 59b4 743f 6f2e 633f
00000020: 6420 113e 6477 593f 40c0 ca3d e8d5 853d
00000030: 6423 773e 4641 713f 52c9 b03e 10c8 453e
00000040: 30b6 873d 7dd5 253f 61f4 3e3f 18d0 9d3e
00000050: b1f4 683f 802b c33c 2ce1 d03e 24ea 563e
00000060: 32cb 073f 48ae 903e 8b90 7c3f 55df 363f
00000070: a6d6 743f 4230 ea3e f064 de3e d82f 133f
00000080: f086 a13e d2ad da3e 38cd 833e 30a5 693f
00000090: 1243 7a3f 20b4 bc3d c117 3c3f e1af 6d3f
000000a0: 0401 6b3e 2f77 303f e084 cb3d 2398 1f3f
000000b0: 7086 7c3f 8034 a53d 92f6 d63e 0e52 5e3f
000000c0: 4018 d43c a055 4f3d a4a3 8c3e 9d36 113f
000000d0: fb3e 693f 4c1e 063f 96c0 073f 6f90 523f
000000e0: b879 af3d 40b8 383e 8f51 253f 10b4 5d3d
000000f0: c895 f03e 1c50 283f a25e b13e 9a6f a13e
00000100: 0c54 683f 7cfa 513f d04d b33e 2cbe 593f
00000110: b2cb 053f 8a7c df3e 2733 563f d49c 9d3e
00000120: 09ec 273f 0163 483f cd99 1f3f 596a 203f
00000130: 2252 ab3e 615b 033f 842b 593f 30e1 b83e
00000140: 9b0a 093f cc22 003f a8e1 f43d 3eef 793f
00000150: 3e9a ab3e 310a 093f 13bc 333f f08a 7a3f
00000160: 58b7 903e 0255 f43e 0857 da3e 0006 753d
00000170: 9058 403d 8046 fe3c 853d 7c3f 14e7 933e
00000180: e9ac 043f 90cb 263d 2088 df3d a2cd 333f
00000190: 851e 393f b81a 673f dce6 f83e 4298 163f
000001a0: b00d eb3d aed1 183f c028 323e 7d9b 623f
000001b0: fb1a 173f 3c70 643f 5e38 3b3f 20e3 bf3d
000001c0: a2cf 1f3f 4071 d63d 6060 b03d ce1b fa3e
000001d0: 2836 713e fe85 243f a7b1 093f f84a fb3e
000001e0: bdb3 533f 211f 6b3f d6a2 c93e 480b 6d3e
000001f0: eb65 173f ac62 183f b263 823e d930 183f
00000200: 00b6 203c eb6d 6c3f d47d 323e 5c74 c03e
00000210: 8883 b23d 5948 673f 5040 b83d 5e90 303f
00000220: f4af 423f d8c3 923e 0cc9 103e 3f48 7b3f
00000230: a8c5 9c3e 5654 263f 96e0 e03e 80ad f83b
00000240: 16c9 213f d766 653f d099 593f 8e84 b43e
00000250: b324 3b3f e04a 823c 329c 363f 60b3 533e
00000260: 3867 823d 00a0 9d3d 6a2c 833e 40f2 5d3d
00000270: 9ee3 783f f04d ae3d 7036 f83e f2b4 753f
00000280: 6a45 ad3e 1d1f 6c3f f072 1d3d 76e9 2d3f
00000290: dc78 f93e 46da 313f 861f 9a3e 795f 593f
000002a0: 8a6f a23e ab9a 2d3f 50a6 883d 8814 a33e
000002b0: 4c71 973e bbbb 353f 3020 993e f2dc b73e
000002c0: a078 4a3d 0c31 643f a0b2 d83c d8db 2c3e
000002d0: 44cc 723e eca7 c63e b807 dd3e 846c f23e
000002e0: 36ca 3b3f 90d2 553e 68b0 013f c054 be3c
000002f0: c2c6 2f3f d2da 103f c234 5c3f 03f9 7f3f
00000300: 7802 fb3d bc5e 6c3f 6d50 203f 887b 1f3f
00000310: ba15 ed3e d812 263f 16f8 f43e c564 393f
00000320: 5ce5 563f 8c0c 173e e2c5 613f 18b6 433e
00000330: 8e4f 983e 54ca 543f ae5b 613f 3463 f93e
00000340: e6de 913e 1185 383f 307e a93d c8f0 753f
00000350: e2d0 163f 3ca6 203f 556a 103f 1225 7d3f
00000360: 5021 313e a218 e13e 7e5f 7d3f 544f 563e
00000370: 27fc 113f 7035 5e3d 8028 073f a2ed 8f3e
00000380: fc33 663e fcb9 873e 30f9 4e3d da12 e93e
00000390: 54c1 d73e 18d5 113f 6df9 613f 7204 6e3f
000003a0: 82c5 943e d028 333e 98fd e23d 4246 633f
000003b0: 1985 613f 0cf6 163f 28eb 643e f042 463d
000003c0: e337 763f 9526 693f a883 633e c00a 133e
000003d0: 1a04 5f3f 668c 823e 509f df3e 6ee0 a13e
000003e0: bf78 6e3f b0fe 5b3d c8ff 3c3f e818 753f
000003f0: 1390 6c3f 846f 7f3e e0a5 713f 1034 b23d
0.8612171 0.62130827 0.46897018 0.11961275 0.924895 0.22400731 0.9558769 0.8874273
0.14172512 0.849478 0.0989995 0.0653494 0.24134594 0.94240224 0.34528595 0.19314599
0.066265464 0.6477888 0.7459164 0.30822825 0.9099837 0.023824453 0.40796793 0.20987755
0.53044426 0.28257966 0.98658055 0.7143453 0.9564003 0.45739943 0.43436384 0.5749488
0.31548262 0.4271074 0.25742507 0.9126768 0.9775859 0.092140436 0.73473746 0.92846495
0.22949606 0.6893186 0.09937453 0.6234152 0.98642635 0.08066654 0.41984993 0.86843956
0.02589047 0.050618768 0.27468598 0.5672396 0.91111726 0.5238998 0.5302824 0.8225164
0.08568138 0.18039036 0.64577574 0.0541268 0.46989274 0.6574724 0.34642512 0.31530458
0.90753245 0.82022834 0.35020304 0.85055804 0.5226394 0.43649703 0.836718 0.30783713
0.65594536 0.7827607 0.62344056 0.62662274 0.334611 0.5131131 0.84832025 0.36109304
0.5353181 0.50053096 0.11957103 0.9763068 0.33516115 0.53531176 0.70208853 0.9786825
0.2826488 0.47721106 0.42644525 0.059820175 0.04695946 0.031039476 0.9853137 0.28887236
0.5182634 0.040721476 0.10914636 0.70235646 0.72312194 0.90275145 0.48613632 0.58826077
0.1147722 0.59694946 0.17398357 0.88518506 0.59025544 0.89233756 0.73132885 0.093694925
0.624262 0.104708195 0.08612132 0.48849338 0.23555815 0.64266956 0.537867 0.49080634
0.82696134 0.91844374 0.39382046 0.23148835 0.5913989 0.5952556 0.25466686 0.59449536
0.009809017 0.9235522 0.17430812 0.37588775 0.08716494 0.9034477 0.08996642 0.68970287
0.76049733 0.28665042 0.14139193 0.98157114 0.3061955 0.64972436 0.43921345 0.007589042
0.6319746 0.89610046 0.85000324 0.3525738 0.73102874 0.015904844 0.71332085 0.20673895
0.06367344 0.07696533 0.25619823 0.054186106 0.97222316 0.08510959 0.48479033 0.95979226
0.3384202 0.92234975 0.03843969 0.6793436 0.4872502 0.69473684 0.30102175 0.84911305
0.31725723 0.6781413 0.066723466 0.31851602 0.29578626 0.7098958 0.2990737 0.35910755
0.049431443 0.8913734 0.026452363 0.16880739 0.23710734 0.3879999 0.4316995 0.47348416
0.73355424 0.20881104 0.506598 0.023233771 0.68662655 0.56583893 0.86018 0.99989337
0.1225633 0.92332053 0.6262272 0.6229787 0.4630564 0.64872503 0.47845525 0.7241939
0.83943725 0.1475088 0.8819257 0.19112432 0.29748195 0.8312123 0.8803052 0.48708498
0.2849037 0.72078043 0.082760215 0.9607053 0.5891248 0.62753654 0.5641225 0.9888469
0.17297864 0.43964106 0.98973835 0.20928699 0.5702538 0.05425018 0.52796173 0.28110987
0.22480768 0.26509082 0.050530612 0.45522195 0.42139685 0.5696578 0.8827122 0.92975533
0.29056937 0.17496037 0.110835254 0.8877908 0.88093716 0.5896919 0.2235533 0.04840368
0.96179026 0.91074497 0.22218192 0.1435957 0.87115633 0.2549774 0.43676233 0.3161654
0.93152994 0.053709686 0.7382779 0.9574113 0.9240734 0.24944884 0.9439373 0.087013364

bias f4 [128]
00000000: 7343 063a 608b a6bc b44a e2bb 79d9 443b
00000010: 2cee b83b 64c2 bab7 7a92 223b c675 e436
00000020: 6c24 f03a c029 54b8 b1c4 813c 8e13 c039
00000030: a907 87bb 5f08 5bbb c027 6a3a f87d de39
00000040: 3178 5fba fb1b 19bb 9844 b6ba dcd3 85bb
00000050: 7cdb c439 f693 2cb8 4824 fb3a 9e5f 863a
00000060: 2132 6f38 4548 32bc 1c00 c83b 386e af3b
00000070: 8242 823b 4ebb 1b3b 6d6d 493a c0e8 8b3b
00000080: e572 8f39 b652 2dbb a51c 8bb7 8d97 9e39
00000090: 2a7f 8fba 62f4 deba 5dfd d2bb c908 e8b7
000000a0: 5ee6 0cbc b5fc 983a 7abf 62b8 687a bd3a
000000b0: ca0c 9c38 584e e6b9 586a ea3a 648b 87bb
000000c0: 2b8d 2b3b fec4 c838 0816 93ba 35ca 113a
000000d0: d74a fdb8 ac7a 4cb8 41fb 5dba 9d0b 2f39
000000e0: dd2f 4939 68a0 d238 2792 773b 390a 6d38
000000f0: 97cd a0ba 0372 12bb c2ac 99b9 f7e4 873b
00000100: b202 b8ba 8d5c 4a39 0db2 32b9 906f 74bb
00000110: 5d39 513b fc5e 2cb7 f476 6eb8 18fb 6dbb
00000120: 70a7 a03c 994d b0b7 fe0f 90ba 909c 2fba
00000130: 5bac ac3c fbb4 9638 e0d4 aabb 9ad3 98ba
00000140: 8c12 41bb a6ce 663b c7f8 b7b9 281a 5ebb
00000150: 7ec8 7d37 c419 17ba b1f7 9aba f28e 35bb
00000160: 4d77 1ab8 cf2e 113b 2824 203c 423b debb
00000170: bbbc 0eba 9061 86bb 56b3 8739 88a8 08b9
00000180: 901a c1b6 a06f fe3a fa80 d139 0c35 253b
00000190: c6d7 d53a 6c80 0ebb 574b 723b 9dfb 8c3b
000001a0: 228c c3ba 236c 503b ac54 6d38 7c6d 6a3b
000001b0: 9225 a6ba d3eb 4838 1e84 353b 1f01 bc38
000001c0: a0c7 cbbb f868 113b 4726 1bbb 643e 853b
000001d0: aadc 1538 eb41 0bbb cd54 8939 ec70 29bc
000001e0: 6229 383b 52cd 3ebc 7b05 44bb 8e76 6e37
000001f0: cc50 6fbb f868 cebb 03e5 923b fb85 40bb
0.0005121745 -0.020330131 -0.006905878 0.003003685 0.0056436267 -2.2263448e-05 0.0024806545 6.80864e-06
0.0018321401 -5.058362e-05 0.01584086 0.00036635663 -0.004120786 -0.0033421738 0.0008932315 0.00042436994
-0.0008524685 -0.0023362625 -0.001390594 -0.0040840935 0.00037547562 -4.1145795e-05 0.0019160593 0.0010251885
5.7028727e-05 -0.010881488 0.0061035287 0.0053537153 0.0039752135 0.0023762765 0.0007683847 0.0042696893
0.0002736069 -0.0026447005 -1.658343e-05 0.00030249023 -0.0010947932 -0.0017010088 -0.0064388947 -2.7660646e-05
-0.008599846 0.0011671992 -5.4060925e-05 0.0014456036 7.441042e-05 -0.0004392739 0.0017884476 -0.0041364897
0.0026176672 9.573436e-05 -0.0011221776 0.0005561442 -0.0001207792 -4.8751637e-05 -0.00084679207 0.00016693627
0.00019186684 0.00010043458 0.0037776323 5.6514724e-05 -0.0012268302 -0.0022345788 -0.0002931115 0.004147168
-0.0014038889 0.00019298699 -0.00017041732 -0.0037297942 0.003192506 -1.0274114e-05 -5.6854406e-05 -0.0036312994
0.01961109 -2.101697e-05 -0.0010991094 -0.000669905 0.02107828 7.1862676e-05 -0.005213365 -0.0011659742
-0.0029460518 0.0035218387 -0.00035089834 -0.0033890102 1.5126656e-05 -0.0005764032 -0.0011823085 -0.002770361
-3.682757e-05 0.0022153144 0.009774245 -0.0067819664 -0.0005444993 -0.004100986 0.00025882822 -0.00013032753
-5.7549405e-06 0.0019411929 0.0003995968 0.002520862 0.0016314916 -0.0021744026 0.0036971176 0.0043024556
-0.0014919082 0.0031802736 5.658406e-05 0.0035770824 -0.0012675992 4.7903344e-05 0.0027697156 8.9647474e-05
-0.0062188655 0.002218781 -0.0023673938 0.0040662754 3.5729878e-05 -0.0021249007 0.00026193858 -0.010341864
0.0028100838 -0.011645632 -0.0029910493 1.4213509e-05 -0.0036516665 -0.0062991343 0.0044828667 -0.0029376734

weight_ih_l0 f4 [384, 128]
00000000: e6ad 87bd f51d 2a3d c148 5bbd 339f 36bc
00000010: e0d3 e2bc 4693 c73c b522 b4bd 3468 85bc
00000020: 07d7 353d b923 9bbc 4d61 96bd cd30 8cbd
00000030: 453f 823d 7303 953b c35d b8bd ad12 94bc
00000040: 7db6 583d 2e83 b23d 95cd 983d 0f6d aebc
00000050: 1704 c1bd dbbe 2d3d 09da b9bc d4ef b8bc
00000060: 56c1 5bbd 76be 513c 8d88 bcbd ca9c 1fbd
00000070: 011a 88bd e8f2 9abc 8a25 b8bd 2248 2c3a
00000080: 69ba 96bd cb85 5e3b 51b6 5f3d 367c febc
00000090: 653f 9a3d 5fe8 0bbb 5d22 6f3d 674b 82bd
000000a0: fb38 a7bd fea9 4fbc 8de9 f6bc f49a cf3c
000000b0: 6f06 823d aedf 9ebd bea6 6fbc 7a0f 8b3d
000000c0: 3d68 743d f27a b2bd a123 2abd fe1c 34bd
000000d0: f7f8 93bd dddd bf3c 49e1 22bd a560 d1bb
000000e0: c2b4 8bbd dc33 95bd 2fa6 893d 8596 70bd
000000f0: de5e 863d 56b6 a3bb fe02 00bd e951 08bd
00000100: 1382 3bbd 4077 3bbc ded2 41bd b202 77bd
00000110: f373 273d 254a 1d3d 7c7d 4b3d ce5f 99bc
00000120: 4552 a43d c790 013d 045b 113d 2e35 9f3c
00000130: bf76 a33d d2af 16bd d466 a83d 8472 61bd
00000140: f26f 61bd 5c2a c63c 8f17 88bd 0c81 923d
00000150: 48ef d93c 314d b23c f922 9b3d 3393 923d
00000160: 6211 313d 357b bf3c e46c 293d ffab 1a3d
00000170: b1a1 8abc 7653 22bd 646e 403d 705c 083d
00000180: bf8b 53bd 83b5 e3bc bfc8 0f3d e6ca 33bd
00000190: e7e7 1abd 75a0 b9bc d17f babd c071 983c
000001a0: 1d0e 36bd 8379 b0bd f4b6 a1bb a666 ad3c
000001b0: 6772 a33d 7155 013d 76c6 743d e355 9b3d
000001c0: 7dd5 683d 451d 65bd be4a 20bd 7d89 92bc
000001d0: 51d2 7d3d a05c fd3b 7563 803c a5f7 0dbc
000001e0: 90d8 833d 9dd2 883c 11cc 573c dba1 6b3d
000001f0: fc3c 7d3d 5894 663d d4a4 a23d 8d12 9b3d
00000200: b650 5c3d b7b9 313e 5e3d ac3d e4c8 883c
00000210: 85fc d73c 50a3 c6bd acde 12bd 1278 4a3c
00000220: 673a afbd ef7c 4fbd 3235 e338 3091 6d3d
00000230: f4f5 973d f175 a13d 5853 46bd 6534 ab3c
00000240: cfc2 2dbd b19e 673d f801 633d e722 883d
00000250: 2ffa fc3c 063d 673d 3be4 32bd 791c 51bd
00000260: c082 d23b 4d98 b93d 6ae6 87bd b586 19be
00000270: 7664 cabd ce1b 76bb 14b3 c7bd 87dc f8bc
00000280: ad09 14bd 28b4 743d 745a 883d 88da a7bd
00000290: 6155 76bd 2e4d 683d cc0d ec3d 7346 ab3d
000002a0: 657e 483d 34fc cebc 4f97 78bd a616 9c3b
000002b0: 8892 d6ba 7ffb 9838 d99b 06be 105e b73d
000002c0: ee9b 863c a0ab 923d e6d7 8b3d b3aa 8dbc
000002d0: 2a35 59bd 0ef8 39bd 7cd4 97bc e6d7 f8ba
000002e0: 6355 58bd 24df 5c3d 0fd2 de3b 1d7a b8bc
000002f0: c48f 9dbc c22e 833d 9674 a93d 840e 29bd
00000300: 9231 ba3d ce14 793d 6642 503d cdd7 bf3d
00000310: 1e53 6dbd 5106 afbd feaf 6b3d 025a 0e3c
00000320: f2d5 8dbd 91d9 173d 1299 a83d 017a b73d
00000330: 06ea 19be cfaf a23c 4387 ad3d f495 a93b
00000340: 92de 5e3d cc87 0dbd 5b94 b23d cb24 c1bc
00000350: 6c3f d8bc bc58 1d3d 65b9 8c3d af6e 36bd
00000360: 46ac 26bd 6eba 82bd 4d2b 3dbd 3f4b 083d
00000370: 5d66 a53d 3e06 043d ca81 76bd e16b f43d
00000380: 551c f6bc 3ca5 33bc e7b2 6bbc 7ff5 66bd
00000390: 8f80 95bd 8bd4 0a3d e21f 723c 87c9 cc3a
000003a0: b28e d23d 5754 f13b 9945 e33c b753 2a3d
000003b0: 4816 573d 6926 8d3b fa66 afbd d572 173d
000003c0: 19f9 153c 27dd 243d 9160 da3c 07b8 91bc
000003d0: 6e54 543d 4cc2 113c fa95 6cbd 950a d33d
000003e0: 3f63 013d f631 8c3d 299a c33d 049e 913d
000003f0: 89eb a33d bf64 ee3c 7759 063d 699a fe3d
-0.06624965 0.041532476 -0.05353618 -0.0111463545 -0.02768892 0.024362218 -0.08795682 -0.01628504
0.04439452 -0.018937932 -0.073427774 -0.068452455 0.06359724 0.0045475303 -0.09002259 -0.018075312
0.05290841 0.08716427 0.07461087 -0.021292238 -0.09424608 0.042418342 -0.022686975 -0.022575296
-0.053651176 0.012801757 -0.092057325 -0.038967885 -0.06645585 -0.018914655 -0.08991535 0.0006572028
-0.07359774 0.0033954259 0.05461723 -0.031065088 0.07531623 -0.002134822 0.05838238 -0.06362038
-0.08165165 -0.012674807 -0.030140663 0.025342442 0.06348883 -0.07757507 -0.014627157 0.06790061
0.059669722 -0.08714856 -0.041537885 -0.04397296 -0.07225221 0.023421222 -0.03976563 -0.0063896948
-0.06821586 -0.07285282 0.0672115 -0.058737297 0.06561063 -0.0049961014 -0.031252854 -0.03328124
-0.045778345 -0.011442006 -0.04732024 -0.060305305 0.040882062 0.038400788 0.049680218 -0.018722441
0.08023504 0.03163221 0.03548719 0.019434538 0.079816334 -0.03678877 0.08222738 -0.05504085
-0.0550384 0.02419012 -0.066451184 0.0715352 0.026603356 0.021765323 0.0757503 0.07156982
0.04322947 0.02337418 0.04136361 0.037761685 -0.016922804 -0.039630376 0.046980277 0.03329128
-0.051646944 -0.027796512 0.035103556 -0.04389467 -0.037818816 -0.02265952 -0.0910641 0.018608928
-0.044447053 -0.086169265 -0.00493514 0.02116711 0.07980805 0.031575624 0.05975958 0.07584741
0.056844223 -0.055936117 -0.03913378 -0.017887825 0.06196815 0.007731989 0.015672425 -0.008665
0.064377904 0.01670199 0.013171212 0.057527404 0.061825737 0.056293815 0.07941595 0.07571898
0.05378791 0.17356001 0.08410142 0.016697355 0.026365528 -0.09699118 -0.035856888 0.012357729
-0.08556061 -0.050656255 0.00010834112 0.05799979 0.07419959 0.07883824 -0.048419327 0.020899007
-0.042422112 0.056547824 0.0554218 0.06647282 0.030881016 0.05645468 -0.04367469 -0.051052544
0.006424278 0.09062252 -0.06635745 -0.14992793 -0.09882443 -0.0037553194 -0.09750953 -0.030378593
-0.03614204 0.059742123 0.066578776 -0.081959784 -0.060140017 0.05671423 0.11526069 0.083630465
0.048948664 -0.025266744 -0.060691174 0.004763442 -0.0016370574 7.2947696e-05 -0.13145389 0.08953488
0.016431775 0.07161641 0.06828289 -0.01729331 -0.053029217 -0.04540258 -0.018533938 -0.0018985241
-0.052815806 0.05392374 0.0067999433 -0.022519166 -0.019233592 0.06405403 0.0827419 -0.04127361
0.09091486 0.060810857 0.050844572 0.093673326 -0.057940595 -0.08546127 0.057540886 0.008688452
-0.069255725 0.037072722 0.08232321 0.08958817 -0.15030679 0.019859223 0.08473065 0.0051753465
0.05441148 -0.034553334 0.08719703 -0.023577115 -0.02639743 0.0384147 0.06871299 -0.04453915
-0.040691637 -0.06383215 -0.046183873 0.033274885 0.08076165 0.032232516 -0.06018237 0.11934639
-0.030042807 -0.010964688 -0.014385915 -0.056386467 -0.07299911 0.033894103 0.014778109 0.0015624025
0.10281123 0.0073647904 0.027743148 0.041583743 0.052511483 0.0043075574 -0.08564563 0.036974747
0.009153628 0.04024997 0.026657375 -0.017787946 0.05183833 0.008896422 -0.057760216 0.10304753
0.03158879 0.06845467 0.09550888 0.07110217 0.08003909 0.029100774 0.032800164 0.12431795

weight_hh_l0 f4 [384, 128]
00000000: ffa2 ef3c 209d 9e3c c46d 91bc 4ec8 c4bc
00000010: 592b 113d d279 1f3c 16f0 35bc 4e39 3abd
00000020: 8d7b 06bc a31f 82bd 86c6 613d 683d abbd
00000030: 10c4 933d daf0 39bd 3539 743d 0655 8d3d
00000040: 5710 4e3d f385 0f3d 00ac 203d 0c55 8d3d
00000050: cf4e 96bd 1cc7 413c 4cbc 86bd f0fc 87bb
00000060: 121c 303d b27c 50bd 1551 8c3d 87e3 97bc
00000070: 70ab 713d b16c 47bd 34a1 263d 7a1e 973c
00000080: 5666 8e3d 88d2 323c 2cbf 77bc 5d77 663d
00000090: 592b 043d 1ee7 263d d8cd 8fbd 387a a43d
000000a0: fd10 37bc cc3e 0bbd 4276 48bd 3093 a6bc
000000b0: 3532 a2bd 9f82 efbc 5f63 64bd b838 1cbd
000000c0: b4a0 82bc 3a9f 2ebd 1759 fdbc 226a 53bd
000000d0: 0fba e03b e33f 663d d447 073c 0554 373d
000000e0: b8d2 32bd 73fd 973d d4b6 52bd e0de eabc
000000f0: 0da0 68bd 88c4 87bc 285a 473d 5746 6e3c
00000100: 8e53 b1bc de46 973d 8a67 c5bd a62b 72bd
00000110: f4e6 993d d042 40bd e989 1f3d 478f 00bd
00000120: 90a6 8f3d 8140 a0bd b685 d9bb e293 9d3d
00000130: ce5f 8dbd 3110 88bd 1dd5 603d a910 79bd
00000140: 27ca b2bd 12d7 ad3d 6a59 013d 7927 5cbd
00000150: 098b 0d3d 7501 513d bc38 f4bc 6aa4 87bd
00000160: 7102 433a 19e1 103c b007 6e3d 118d 4e3b
00000170: 778d 9fbd 4e61 81bc 8768 3c3c e5ae 9e3d
00000180: c30c a63c 91e3 81bd 4532 e93c cfe8 3fbd
00000190: 06e8 9b3c 7ad8 a13d fa9c 88bd 2c9b 843d
000001a0: 5f18 413d 8747 fabc dd2b f23b 176e b0bd
000001b0: d2d8 d1bb be7d 713d e600 a33d dcff 9f3b
000001c0: 91f7 52bd d088 453d 88c1 af3c 1a2b ac3d
000001d0: 6f6a a1bd f873 f33c eb5f 81bd ea46 b3bd
000001e0: e6a3 883b d67c b7bd 3e86 a9bd 6494 833d
000001f0: 4e80 64bd b6e2 b8bc edda 813d a44d 39bc
00000200: 62e1 bdbd 30aa 5f3d ae31 c8bb 12de 5e3d
00000210: b0c4 ae3d 292b f6bc d80e e1bb 4144 51bc
00000220: 9829 8f3d eaa5 7d3d 3afe 043b ddd1 84bd
00000230: 152c 7fbd e63a bbbd b729 c4bc 67f7 a6ba
00000240: 839b 9abd 0d56 95bd 61e9 e5bc 2265 1ebd
00000250: cb3d a03c 1fb5 713d 2af0 4b3d 6642 a23d
00000260: 203f 2a3d 07bb bbbd 9d4c 853c 655c a63d
00000270: 8204 703d 377a 303d a1c0 f03c 19f7 6abd
00000280: 1a5b 723d d0ed b5bd 770e 643d 7a06 74bd
00000290: 1cec 333a 32ae 05bd 167b a9bd b7e4 7cbb
000002a0: 6062 9b3d 0cb6 afbb 1ffc af3d 0ce1 153c
000002b0: 5db3 4dbd 84c3 80bc 9147 6b3d b0f5 6abd
000002c0: b3c9 203d ef34 8abc 7eab be3d 4af4 9e3d
000002d0: b847 b2bd f9b4 95bd a0ae 1f3d cd75 ea3c
000002e0: be10 963d b01f 523d 0a24 e0bc 4368 0d3d
000002f0: 7a16 0f3d 14f8 4dbd 3f5c 40bc f106 8dbd
00000300: 2d38 3dbd 5b26 a23d baa3 013d 1871 3e3d
00000310: 9bab 563c 1d55 a43d 38f8 bfbc 00a7 98bc
00000320: 78de e9bc 1765 a5bd 319e b13d f887 b03d
00000330: 60dd abbd 8664 a43d 81b2 fcbc 0be9 033d
00000340: 30dd 3b3d 427b fa3c 7405 403d 0529 a6bd
00000350: 45a6 86bd 2b2b 11bd fcfb 06bc ee75 88bd
00000360: 7006 41bd bb61 bc3d baa0 1c3b 5f6f 93bc
00000370: 4db4 863d 056e 4d3d b063 553d 1bb6 853d
00000380: aa87 c5bc 9a12 333d 8ef5 26bd 8f36 85bd
00000390: 7ee2 ddbb 0d85 363d 8421 a03b 637c acbb
000003a0: b489 a03d 6939 b33d 579e d63c 0377 14bd
000003b0: f693 9f3d d19d 8dbd c1d3 943d 8712 723d
000003c0: 04f8 c2bd 939e 7bbb 87a2 10bd a886 44bd
000003d0: d95a 953c 4aea 37bd 9b95 893d 685e 3c3d
000003e0: 5e19 5b3d 8992 a13d e6c7 243c d396 3dbd
000003f0: 97b9 a83d ec6f f1bc a4a1 41bd 32c4 31bd
0.029252527 0.019362032 -0.017752536 -0.024021294 0.03544173 0.009733634 -0.011104604 -0.045464806
-0.008208168 -0.063536905 0.055120967 -0.08361322 0.0721513 -0.04539571 0.05962487 0.069009826
0.05030855 0.035039853 0.039226532 0.06900987 -0.0733925 0.0118272565 -0.065788835 -0.0041500255
0.04299552 -0.05090017 0.06851403 -0.01854111 0.059001386 -0.04868764 0.04068108 0.01844715
0.06953113 0.010914452 -0.0151212625 0.056266177 0.032267902 0.040747754 -0.070216835 0.08031124
-0.011173484 -0.033995435 -0.048940904 -0.020333856 -0.079197325 -0.02923709 -0.05575883 -0.03814003
-0.01594577 -0.04263232 -0.03092627 -0.051614888 0.0068581174 0.05621327 0.008256871 0.04475786
-0.04365799 0.074213885 -0.05144389 -0.028670728 -0.05679326 -0.016573206 0.048669964 0.0145431375
-0.021646287 0.07386564 -0.09638889 -0.059123658 0.07514754 -0.046938717 0.03894988 -0.03138664
0.07014191 -0.07824803 -0.006638254 0.07694222 -0.06903039 -0.06643713 0.05489074 -0.060806904
-0.08729964 0.08488287 0.031579413 -0.05374858 0.034556422 0.05102678 -0.02981221 -0.06623156
0.00074390235 0.00884273 0.0581128 0.0031517188 -0.07790654 -0.015793469 0.011499531 0.07748202
0.020269757 -0.06342233 0.028466353 -0.046852883 0.019031536 0.07902618 -0.06670566 0.06474909
0.047142383 -0.030551685 0.007390483 -0.08614748 -0.006404021 0.058957808 0.07959156 0.0048827957
-0.05150563 0.048226178 0.021454588 0.084066585 -0.07881629 0.029718384 -0.06317123 -0.0875376
0.004169929 -0.089593574 -0.08277558 0.06424788 -0.055786423 -0.022569042 0.06340585 -0.011310015
-0.09271504 0.054605663 -0.006109438 0.054411 0.08533609 -0.030049877 -0.0068682246 -0.012772621
0.06990355 0.061925806 0.0020293132 -0.06485341 -0.0622979 -0.09142093 -0.023945672 -0.0012738527
-0.07549193 -0.072918035 -0.028065385 -0.038670667 0.019560715 0.05901062 0.049789585 0.07922821
0.041564107 -0.09166532 0.016271884 0.081230916 0.05859805 0.043085303 0.029388728 -0.057364557
0.059168912 -0.0888325 0.055677857 -0.05957649 0.0006863491 -0.03263683 -0.0827543 -0.0038588473
0.07587123 -0.005362278 0.0859301 0.009147894 -0.050219882 -0.01571823 0.057441298 -0.057363212
0.039254855 -0.016870944 0.09310053 0.07761438 -0.087050855 -0.073099084 0.038984895 0.028620625
0.07327412 0.05129975 -0.027360935 0.03452326 0.034933545 -0.050285414 -0.011740743 -0.068860896
-0.04619615 0.07917472 0.031650282 0.046494573 0.013102437 0.080240466 -0.02343379 -0.01863432
-0.028548464 -0.08075922 0.08672751 0.08619684 -0.08391833 0.08026986 -0.030846836 0.03220467
0.045865238 0.030576352 0.0468802 -0.081132926 -0.06574682 -0.03544156 -0.008238789 -0.06663118
-0.04712528 0.09198328 0.0023899511 -0.017997442 0.065773584 0.05015375 0.052097023 0.065288745
-0.024112541 0.04371891 -0.040761523 -0.06504547 -0.0067713847 0.04456048 0.004886808 -0.0052638515
0.07838765 0.087511845 0.02619855 -0.03624631 0.07791893 -0.06914867 0.07266951 0.0590997
-0.095199615 -0.0038394078 -0.03531125 -0.04797998 0.018231796 -0.04490117 0.06717988 0.04598847
0.05349099 0.078892775 0.010057425 -0.046286415 0.082385235 -0.029472314 -0.047273293 -0.043399997

bias_ih_l0 f4 [384]
00000000: cf58 373d 42f8 523d 284d c5bc ed0c e93c
00000010: 38bd 59bd c7ed 003d 687d a9bc d7e0 4b3d
00000020: 13e8 21bd 3573 6d3c 23bd afbd 6615 643d
00000030: 7652 8f3d fc87 123c 4a54 5cbd c021 713d
00000040: 8388 b33d 41b7 87bd 9bfc 733d a782 c0bb
00000050: a800 5e3d 400c e2bc c624 9fbc dffa 2a3d
00000060: 9bba 1ebd 109e 853d 7d2e 6a3d 013e a33c
00000070: bae3 57bd eb29 323d 8c7a a33d bb89 43bd
00000080: 4f40 243d b3c7 1bbc e375 28bc 6b5d 97bd
00000090: 09c2 9fbd 6304 91bd b768 bebd 0cee 6ebd
000000a0: b1b1 323d b25d 783c 58b8 4c3d 6b19 8a3d
000000b0: 0188 34bd 3735 af3d 657a 69bc b5d9 9cbd
000000c0: cea0 ab3c 63cd 5abd 2fa9 0abd 7d2e 99bd
000000d0: 7726 12bc 5d8a 243d 700e b93a f730 c93c
000000e0: 9877 94bb 66ce 173c f9cc ce3b 8a0b cd3c
000000f0: 2c8c b33c 8afa a13d 4951 e0bc 7873 8dbd
00000100: 4576 95bc 1643 5c3c b8dd 823d 919c 22bd
00000110: 3276 8a3d c774 f73b 0323 17bd a00a f4bc
00000120: 8ea2 bd3c 93e7 a0bd c772 38bd e533 593d
00000130: 9920 803d 2ca9 1ebd 4df6 a33a 3649 fcbc
00000140: 925c 283d 697e 873d 06a7 a93d 1391 a2bd
00000150: e908 ddbb e613 22bc 0d7a 94bd 7ef8 57bc
00000160: 519a 09bd 3913 8c3d 087e 7dbd eeb0 00bc
00000170: 0baf 833d b388 d7bc b03a b1bd 748c 2d3b
00000180: c755 8a3d d0e4 11ba 70e2 bdbd 2504 03bd
00000190: f8b7 cd3c b22c 88bd 4ee0 333d 38e6 9a3d
000001a0: 7cae a0bb 36eb b7bd c8b7 d9bc a142 9ebc
000001b0: f757 b43d 9e85 8ebd fbf1 a9bd 0921 2fbd
000001c0: d7ef 4cbd 8480 ab3c 8332 ed3c e1ea 963d
000001d0: f159 8f3c 42ca 853c 5da3 953d 6b87 7bbd
000001e0: 457e 303d 8877 913d 46f8 51bd 79fd 51bb
000001f0: 6fd7 533c 2227 003c 08f4 d63c bda6 c93b
00000200: 8450 523d 6daf b33d 303b 63b9 c1e2 b63d
00000210: 9fb9 933c 2f9e 763d 4898 98bd b327 e83d
00000220: 49f7 72bd c2f0 69bd db0d 30bc ce02 b73d
00000230: 7441 d43d d327 1f3d a943 3c3c 2b02 36bc
00000240: 2cb9 173d a294 8ebd 2837 89bb 1d93 03bd
00000250: a3de 6f3c 3540 253d 0877 043c ee3c 06bb
00000260: 6e7e 73bd eb9a 953d 381e fa3d 5864 f63c
00000270: 3dff e53c 34b9 643d d050 453d 4b71 97bd
00000280: ffb1 f0bd ab89 c2bd 5104 4cbd e8c4 a43c
00000290: 03e0 af3d e80c 923d 89aa ae3c fce3 fb3d
000002a0: 5bf8 30bd d19a f73c 14d1 b33d 361b 42bd
000002b0: e677 d2bd 392a 3cbd 8d17 5ebc 5d40 933d
000002c0: e32f b9bc c692 2bbd d7d6 23bc 38df e4bc
000002d0: 2fc4 363d 76b1 013c bc7e 133d efbe 8d3d
000002e0: 4e80 403d 2913 3e3d 19ad 533d f6a1 e93c
000002f0: de73 ed3b d80d 1f3d e264 923d 4007 b8bd
00000300: 3f17 3cbc 8946 ae3d 5f87 523d ddcc 073e
00000310: bd4d 4e3d 6e5b 873d 65ba fdbd 3929 eebb
00000320: 007e 383c a726 02bc 5877 b33d 5278 edbc
00000330: 9894 edbd d4e1 85bc 1cdc bc3d 01f9 b2bd
00000340: 24d7 643d ceef 8abd 73ec cb3b 4d33 45bd
00000350: a7c5 90bc b294 0cbc d155 28bd fb52 903c
00000360: dc73 15be fdf2 34bd fb72 e8bc b5f6 bbbb
00000370: 8f52 1c3c be6f dabb 8ebe 623d 8833 7abc
00000380: ff19 1b3d 0962 00ba 63c3 18bd 288a 073e
00000390: b690 573d 6592 563d 1f62 cf3d 45f2 dabc
000003a0: 0d63 163c a6bc c23c 6c11 f53d 228a 8a3d
000003b0: 5b05 c8bd 3a29 793c e9f1 88bd 4a06 d5bd
000003c0: 2f32 6a3d d8f3 89bd f2be 8fbd 46d5 f73c
000003d0: ba7e 70bd 60e3 b7bb a1be 1c3d abe3 b4bd
000003e0: 24b2 99bc 8bc4 ec3d 9562 44bc c06f 8abd
000003f0: f434 eb3d ca32 a4ba a9c9 07bc e0fe 95bd
0.04476243 0.05150629 -0.024084643 0.028448546 -0.05315897 0.031476762 -0.020689681 0.04977497
-0.039527964 0.0144927995 -0.08580997 0.05568447 0.0699815 0.008943554 -0.05379132 0.058870077
0.08766272 -0.0662675 0.059567075 -0.00587495 0.054199845 -0.027593732 -0.019426715 0.041743156
-0.03875218 0.06524289 0.05717324 0.019927027 -0.05270741 0.043497007 0.07982358 -0.047738772
0.040100392 -0.009508061 -0.010282013 -0.07390865 -0.07800681 -0.07080915 -0.092973165 -0.058332488
0.04362649 0.015159057 0.04998049 0.06743129 -0.044075016 0.08555072 -0.014250373 -0.07658712
0.020950701 -0.05341853 -0.033852752 -0.0747957 -0.008920304 0.040171016 0.0014118683 0.024559481
-0.0045308582 0.009265518 0.0063110557 0.025029916 0.021917425 0.07909115 -0.02738251 -0.069067895
-0.018244872 0.013443729 0.06389946 -0.039700095 0.06760825 0.0075517627 -0.036898624 -0.029790223
0.023148801 -0.07856669 -0.045031335 0.053028006 0.062562175 -0.038735554 0.0012509316 -0.030796628
0.041103907 0.06615908 0.0828381 -0.07937827 -0.006745447 -0.0098924395 -0.07249842 -0.013181804
-0.033594433 0.06839604 -0.06188777 -0.007854683 0.06429871 -0.0263103 -0.08653772 0.0026481422
0.06754642 -0.0005565407 -0.09271705 -0.031986374 0.025112137 -0.0664915 0.043915085 0.07563442
-0.0049036127 -0.0898041 -0.026576892 -0.01931888 0.088058405 -0.06959079 -0.08298107 -0.042756114
-0.050033417 0.020935304 0.02895475 0.07369018 0.017498942 0.016331796 0.0730655 -0.06140844
0.04308917 0.07102877 -0.051262163 -0.003204195 0.012929781 0.00782183 0.02623941 0.00615391
0.051346317 0.08773694 -0.00021670456 0.089299686 0.018032847 0.06020945 -0.0745092 0.11335697
-0.05931786 -0.05711437 -0.010745491 0.08936082 0.10364047 0.03885634 0.011490741 -0.011108915
0.037041828 -0.06961943 -0.0041874833 -0.03212272 0.014640483 0.040344436 0.00808502 -0.0020483094
-0.059446745 0.07304939 0.12212795 0.030077145 0.028075809 0.055840686 0.048172772 -0.07394656
-0.117527 -0.09498914 -0.049808804 0.020113423 0.08587649 0.07131368 0.021321552 0.12299344
-0.0432056 0.03022519 0.08780113 -0.04738923 -0.10276775 -0.045938704 -0.01355542 0.07190011
-0.022605842 -0.04188802 -0.009999952 -0.02793847 0.04462069 0.007915845 0.036009535 0.06921183
0.04699736 0.04640499 0.05167875 0.028519612 0.0072464785 0.03883156 0.07148148 -0.08985758
-0.011480152 0.08509547 0.05139863 0.13261743 0.050367106 0.06609236 -0.123890676 -0.0072680977
0.0112605095 -0.007943786 0.087629974 -0.028988037 -0.11600608 -0.016343035 0.0922167 -0.087389
0.055869237 -0.0678402 0.0062232553 -0.048144627 -0.017672373 -0.008580374 -0.041097466 0.017617693
-0.14594978 -0.044177044 -0.02837514 -0.005736197 0.009541168 -0.0066661527 0.05535751 -0.015271075
0.03786659 -0.0004897421 -0.03729571 0.13236296 0.05262824 0.052385706 0.10126137 -0.026726851
0.009178889 0.023771595 0.119662136 0.06764628 -0.097666465 0.015207583 -0.06686766 -0.1040159
0.057176765 -0.06735963 -0.07018842 0.030253064 -0.058714606 -0.005611822 0.038267735 -0.08832487
-0.018761702 0.11560925 -0.011986394 -0.06759596 0.114847094 -0.0012527343 -0.008287826 -0.07324004

bias_hh_l0 f4 [384]
00000000: 02b2 c2bc 59e8 b1bd b1bb 923b 5842 0fbd
00000010: b4b7 f9bc ba69 b5bd 7b60 993d ca0f 8b3d
00000020: 5393 733d f762 c23b fd79 76bd a5c8 683c
00000030: 38a6 59bd feb7 8c3a aae2 d0b9 6403 b0bd
00000040: 64e4 ae3b 0dc6 053d 6e92 4a3c ee7d 493d
00000050: 0b78 8f3d db36 823d 8671 6c3c af3c e93c
00000060: 35c3 d0bb deeb 4a3d f3d2 3abc e2c7 173d
00000070: 896e 48bd 9cc0 a33c b782 0abc 0b08 e03c
00000080: 1f00 463c 4b21 123d 057e f5bc 8cf6 3c3d
00000090: 0ada 283d a5c1 763d ec34 64bd dd12 c23c
000000a0: 1b06 76bd af13 38bc 68a1 763d 84be 64bc
000000b0: 9f1c fb3c 2b34 0f3c 1517 2fbc 8c04 003d
000000c0: 6944 2d3d 9965 ce3d 3e79 9d3d c66c 85bc
000000d0: 7eed 1abd 36b0 753d 1e72 e5bc 582c a73d
000000e0: 7eb6 873d b40a 97bc 739e e1bc eab0 3ebd
000000f0: 6d84 923d 479c 6cbd 515d 953d 2982 95bb
00000100: 00a8 853d 8fab c13c f35f 99bd a36b 42bc
00000110: 2179 8fbc 94b3 19bc 02e3 8e3b f6f6 953d
00000120: 9e83 56bc aa55 6c3c cdfe 9dbd f829 0ebc
00000130: 773d 73bd 9702 ce3c b64c c0bc e187 8bbd
00000140: 5491 83bb b54f 953c 6f9e c63b f2a9 ed3c
00000150: 99e7 c6bc 2725 b0bd d34d 22bb 4cea 89bb
00000160: fa2d 91bd e1ab 87bc d618 103c b61e 753d
00000170: 8c84 93bd 9393 003d 15c4 133d 3a6b ae3b
00000180: 8101 933d f479 47bd 5514 2fbd b25b ac3c
00000190: 4f76 46bd 12cb 2d39 6572 82bd ff03 12bd
000001a0: c701 633c 12d5 b3bd c0e8 a0bd 096e a0bd
000001b0: 9f74 5cbd c53d a1bd 3761 9e3c c1da 52bd
000001c0: 1ef4 9bbd d869 f13c 90e1 39bd 7fac ca3c
000001d0: 9f44 353d 9650 49bd 5c44 01bb bce3 a63d
000001e0: 4dd4 153d 5519 95bb d640 c53c 814a b5bd
000001f0: 30d1 4e3d 2f9d 9abd dbe8 afbb 1d1d 69bd
00000200: 0d6d afbb a719 3b3d 5cfa f33c 626c c73d
00000210: e0b4 19bd 2bf3 f73c 506a 393d 0ea4 a43d
00000220: 8c33 5b3c eeee c33d 16cc de3c dab6 ed3d
00000230: adbb b4ba 6cf5 543d 4aec 28b9 b3e9 e3bd
00000240: 8c56 4b3b 24bd de3c 293f 893b 615e 21bd
00000250: 9c1c 403d f84f b6bc f72e 26bd f13d 273d
00000260: 0f24 a7bd 3e47 333d 7ac7 e73d a4cb a0bd
00000270: 1a1f 7fbd f699 143d 7f29 97bd 82f0 faba
00000280: e0f4 bfbc 1ff6 b8bd 2d8e 71bd 48f3 733d
00000290: dcd7 813d 653b 2b3e 9a6b d5bd a424 26bd
000002a0: 96ca 0abe 8198 da3d 9bdf 84bc 6e13 b33d
000002b0: 69f1 37be 5561 f0bd 7005 f6bd f3b7 f13c
000002c0: 7eb4 983d bc40 393d df02 43bd 071b 863d
000002d0: e182 d7bc 60c2 c1bd c602 6f3d 3d9b 973d
000002e0: acde f4bc 1358 8dbd 47f5 663c 8951 08be
000002f0: 28e3 f5bd 7287 493d 077d fe3d 4e66 c7bd
00000300: bc80 313d 864b ec3d afea b53d 6f57 f53d
00000310: 230e d63d 6f88 8a3d 98a7 b2bd 8687 413d
00000320: b792 893d 8649 4f3c aab6 06bc 05bf 223d
00000330: e349 17be d821 903c 58bb 373d 793d 00bd
00000340: dbb3 ed3d d9cb 4abc dd3a f93c 10eb 3dbd
00000350: 4ad8 ca3c 5df8 7ebd c348 30bd b26f 4fbd
00000360: 777a 21be ca37 b03d 5cb7 4f3d 3b86 ac3d
00000370: aae1 f83d 558a 583d b136 9c3b 8e87 643d
00000380: 9e44 4abd 4421 bbbd 815e d73d d301 8fbc
00000390: 4bc0 023d 561b d83c b8f0 acbc df1c 1ebe
000003a0: 87ae d0bb f91c 06bd 5c72 b53c e122 b33d
000003b0: ee66 18bd 5c28 e8bc 134e 09bc 361e 04be
000003c0: d315 93bd c497 13be 1e9b 37bd 5d7c 2bbd
000003d0: 2157 f73b a25a 03bd 6e1b 6e39 5b54 253c
000003e0: a547 bb3d 9345 5c3d f332 a03d 8234 cd3c
000003f0: 1cbd 493d 1faa 2cbd 59b7 e6bb 5ca5 223c
-0.023766521 -0.08686895 0.004477941 -0.03497538 -0.030483104 -0.08858056 0.07489105 0.06790121
0.05946667 0.0059322077 -0.06017493 0.014207994 -0.053137034 0.0010735986 -0.0003984173 -0.08594397
0.005337285 0.03265958 0.012364013 0.04919236 0.07005318 0.06358119 0.014431363 0.028471319
-0.0063709267 0.049541347 -0.011402833 0.037055857 -0.04893354 0.019989304 -0.008454016 0.027347585
0.01208499 0.035676282 -0.029967317 0.046133563 0.041223563 0.060243268 -0.055714533 0.023690635
-0.060064416 -0.011235162 0.060212523 -0.013961438 0.030653296 0.008740465 -0.0106866555 0.031254336
0.04230157 0.10077972 0.07689141 -0.016287219 -0.037824146 0.0599825 -0.028008517 0.08162755
0.066266045 -0.01843772 -0.027541375 -0.046555437 0.071541645 -0.057766225 0.07293189 -0.0045626354
0.06526184 0.023641376 -0.07489004 -0.011866483 -0.017513813 -0.009381194 0.0043605575 0.07322495
-0.013092903 0.014424721 -0.07714615 -0.008676998 -0.05938479 0.02514772 -0.023474079 -0.06813026
-0.004015127 0.018226484 0.006061367 0.0290117 -0.024280356 -0.08600836 -0.0024765625 -0.0042088386
-0.070888475 -0.01656145 0.008794984 0.05984374 -0.07203016 0.031390738 0.03607567 0.005322841
0.07178021 -0.048700288 -0.042744 0.021039817 -0.04845267 0.00016574215 -0.06369475 -0.035648342
0.013855404 -0.08780874 -0.078568935 -0.078334875 -0.053822156 -0.0787311 0.019333465 -0.05147815
-0.07614921 0.029469416 -0.04538113 0.024740456 0.044254895 -0.04914912 -0.0019724583 0.08148906
0.03657942 -0.004550139 0.024078768 -0.08852101 0.050492465 -0.07549512 -0.0053683347 -0.05691253
-0.005353576 0.04567876 0.029782467 0.09737469 -0.03752601 0.030267319 0.045267403 0.080391034
0.013378989 0.095670566 0.027196925 0.11607142 -0.0013788842 0.051991865 -0.00016109753 -0.11128559
0.0031026928 0.027189799 0.0041884375 -0.039396647 0.046902284 -0.022254929 -0.040572133 0.040830556
-0.081611745 0.043769114 0.11317344 -0.07851341 -0.06228552 0.03627964 -0.073809616 -0.0019145163
-0.023432195 -0.09031319 -0.05897348 0.059558183 0.0634 0.16721876 -0.10420914 -0.040562287
-0.13553843 0.10673619 -0.016219905 0.0874394 -0.17963184 -0.117373146 -0.12012756 0.02950666
0.07456301 0.04522775 -0.04761016 0.06548124 -0.026307525 -0.09460902 0.058352254 0.07402656
-0.029891334 -0.069015644 0.014096565 -0.13312353 -0.12006217 0.049201436 0.12426191 -0.0973631
0.04333566 0.115378425 0.08882653 0.11979567 0.10451915 0.06764304 -0.08723372 0.047248386
0.06717437 0.012651807 -0.008222261 0.03973295 -0.1477428 0.017594263 0.0448564 -0.031308625
0.1160657 -0.012377703 0.030423576 -0.04636675 0.024761338 -0.062248576 -0.04303814 -0.05064363
-0.15769373 0.08604391 0.050711975 0.0842404 0.12152417 0.0528663 0.004767262 0.055793338
-0.049381845 -0.09137204 0.10516072 -0.017456925 0.031921666 0.026380222 -0.021110877 -0.15440701
-0.0063684615 -0.032742474 0.022149257 0.08746887 -0.037207536 -0.028339557 -0.008380431 -0.1290215
-0.07181897 -0.14413363 -0.044825666 -0.04186665 0.0075482284 -0.032068856 0.00022707667 0.010090913
0.091445245 0.05377729 0.07822218 0.025049452 0.049252614 -0.042154428 -0.0070408997 0.00992712

weight_ih_l0 f4 [384, 128]
00000000: 94e9 f53c 3e96 603d 122b 483c 3a10 c93c
00000010: 6bcb 8d3c 910c d33c 5285 5a3c 2574 9f3d
00000020: b20c 843d 6296 6dbd e405 58bd ca02 333d
00000030: 5718 803d ab79 6f3d 46d7 b0bd d04a 463d
00000040: c58e 4ebd e5a2 c73d c17f 11bd 2759 71bd
00000050: b4ca 773c ce67 9c3d 392b 46bd 634b d03c
00000060: de42 473d 0210 c43c a6cb c63d 06d7 7dbc
00000070: 0958 5a3c 486b 8fbb 2562 273d 56c9 9ebd
00000080: 543d 21bd 457e 00bc 194d 1e3d dd3c 5cbd
00000090: ca32 0cbd ceb4 433d 4a35 423d ce45 2cbd
000000a0: 7eff c93d 732e 133d ba6b 44bd 5085 f43c
000000b0: c1c1 603d 1d1e 78bd c621 06bd c278 29bd
000000c0: b497 af3d c034 31bd 96ff 0abd 13b0 d93d
000000d0: 59ef 84bd c381 933d a934 2bbc a17e 86bd
000000e0: d3d5 383d 88e7 a8bd 2f3e 4d3c 4957 f93d
000000f0: eabc 5c3c 57df 733d 10d6 1c3d 5fe2 713d
00000100: 79de 7cbd 5f4d 9bbc 2f03 263d 23b5 fe3c
00000110: eddb f33d 3c32 913d f14f 9f3d 5964 1fbd
00000120: 17eb d23c 6f6b 563d 452f 0cbd a317 a3bc
00000130: 9ded 2bbc f80d 61bc 5f1a aabd fb14 c7bc
00000140: 3e4d cb3d 84e7 62bc 137f bf3a 7bc8 3a3d
00000150: d3e8 23bd d4f1 c0bc 1af3 8c3d cb87 77bc
00000160: dbec 183c 0fb3 ae3d 2822 713d f4c5 813d
00000170: 6f9b 35bd 7e6f 8fbd aaaf 593d 2e09 3e3d
00000180: 516d 91bd 85c4 673d cf6e 81bd b1b4 4d3d
00000190: 1045 a73c 49a8 6abd d7fa 14bb fb92 aabd
000001a0: fb39 4b3d bd35 1a3d 8d73 a2bb 172b 8abc
000001b0: 35a5 e13c cf52 b0bc f662 263c a1bc 213d
000001c0: 89f4 133d 66ab 093d b3ab b33d e67a a23c
000001d0: 6d9f 823d 79f8 86bd 6645 9f3d 6614 b93c
000001e0: 3503 d93c e81c 123d b303 0c3d 57cf 25bd
000001f0: 202d 54bc 81e1 de3b 6f41 80bd fe9e d03d
00000200: 20c9 3ebd 488d 2abb cf2d 3d3d 5fe7 193d
00000210: 24ce b2bd 8b37 653d 5bf9 2cbd 9d0f f83c
00000220: 02ad ac3d e8a9 963d e217 cab9 0169 b03d
00000230: f463 a33d 99bd 013d 87f7 a3bc 5810 d5bc
00000240: 72f0 96bd 475f 0a3d a8f1 44bc b47b 1fbd
00000250: 70c4 583d 9960 e7bc 335f 05bd 06fc 1bbc
00000260: 3efd 4e3d 0e7a 873d 2ea1 cbbc 56d8 133d
00000270: 3d12 ad3c 1eb5 9dbc be92 05bd 5bde 8d3d
00000280: 8fb0 b8bd 9e99 1f3d e703 2c3c 2d97 f33b
00000290: cde5 973d d026 d83c 9464 7f3d 1c4b bdbd
000002a0: 304b 4ebd 3993 19bc 8664 c7bd 8403 c53c
000002b0: be2d 423d 1653 873c cb6f 203c ce56 0e3d
000002c0: 72fa 64bd 3f77 b1bc 3e22 8b3c ffd0 85bd
000002d0: 1452 3d3d f704 adbd 6d87 35bd 988e 5c3d
000002e0: b09a 79bd c545 903d 82a0 993d 534d 28bd
000002f0: 4e78 8f3d 81a5 97bc ee7b 80bd 8210 873d
00000300: 2917 1d3d 6379 863d 2dbf a73d 090c d83c
00000310: 5468 9b3d efef 4dbd 6943 153d 0a5a 8bbd
00000320: d5b5 0e3d f5d5 c7bd af49 7bbc 577e 4abd
00000330: 7f1e 77bd dd63 c33c 92aa c0bc 1273 733d
00000340: fefe 4bbd 5a99 9dbd 0bbf 03bd a067 42bd
00000350: f73a 96bc 43fd 05bd 0aa3 68bc 2fa2 9b3d
00000360: 0ed6 643d 1037 57bc 5bb6 583d 258e 123d
00000370: e9c2 643d cddc f53c ac3a 80bc 3298 6fbb
00000380: 6ce1 b23d dbf0 1c3d dd44 f13c 8c40 75bd
00000390: ad0e 77bd af12 413b 5688 c1bd 56a2 65bd
000003a0: c4bd 493c 1347 a1bd fb75 71bd 0ea4 9cbd
000003b0: f870 0c3d 1223 893b f976 fbbc 9e19 99bc
000003c0: 070c fc3b 2427 80bd 14ac 6d3d 1aae 1f3c
000003d0: c587 723d d4e3 9b3c 9588 473d 5ab7 693d
000003e0: 4ac3 2a3d f9ea afbd 34e6 4f3d 937b 9cbd
000003f0: c7de a0bd ad4f e3bc aa0f 413c 5df4 3dbd
0.030018605 0.054830782 0.0122173 0.02454387 0.017308911 0.025762828 0.01333745 0.07785825
0.06447734 -0.058004744 -0.052739993 0.04370383 0.062546425 0.05846564 -0.0863481 0.04841119
-0.050429124 0.097478665 -0.035522226 -0.058922913 0.015124012 0.07636987 -0.048381064 0.025426572
0.048647754 0.023933414 0.097068116 -0.01549316 0.013326653 -0.0043768026 0.040865082 -0.077532455
-0.039365128 -0.007842605 0.038647745 -0.05376898 -0.034228124 0.04777985 0.0474141 -0.04205876
0.098631844 0.03593297 -0.0479543 0.029848725 0.054872278 -0.060575593 -0.032747053 -0.04137493
0.08573857 -0.043263197 -0.033935152 0.106292866 -0.064909644 0.072024845 -0.010449567 -0.06567121
0.045125794 -0.08247286 0.012527033 0.121748514 0.013472775 0.059539165 0.038290083 0.059053775
-0.061735604 -0.018957792 0.04053038 0.031092232 0.11907182 0.070896596 0.077789195 -0.03891406
0.025746865 0.05234855 -0.034224767 -0.019908732 -0.010493663 -0.013736241 -0.08305811 -0.024301996
0.09926842 -0.013849143 0.0014610015 0.04560135 -0.04001696 -0.023552813 0.068823054 -0.015108059
0.0093338145 0.085302465 0.058870465 0.06336585 -0.044337686 -0.07003687 0.053146042 0.046395473
-0.071009286 0.0565839 -0.06319963 0.05022115 0.020418674 -0.057289395 -0.002273252 -0.083288155
0.04961584 0.037648905 -0.0049576224 -0.01686625 0.027544597 -0.021523861 0.01015543 0.03948653
0.03612188 0.033610724 0.087729834 0.019833993 0.06378064 -0.06590361 0.077769086 0.022592735
0.026490787 0.0356721 0.034183215 -0.040480938 -0.012950212 0.0068017845 -0.062624805 0.10186575
-0.046578526 -0.0026024152 0.046186265 0.03757417 -0.087307245 0.055961173 -0.04222999 0.030280882
0.08431436 0.07356626 -0.00038546236 0.08613778 0.07978049 0.031674955 -0.020015491 -0.02600877
-0.0737008 0.03378227 -0.012020506 -0.038936332 0.052921712 -0.028244304 -0.032561492 -0.009520536
0.05053448 0.06615077 -0.02485713 0.036094986 0.02112686 -0.019251402 -0.032610647 0.069271766
-0.09018051 0.03896486 0.010498977 0.007433793 0.07416878 0.026385695 0.06235178 -0.092428416
-0.050364673 -0.0093734795 -0.0973597 0.024049528 0.047406904 0.01651911 0.0097922785 0.034750752
-0.055902906 -0.021663306 0.016984101 -0.065340035 0.046220854 -0.084482126 -0.044318605 0.053846925
-0.060938537 0.070445575 0.075013176 -0.041089367 0.07005368 -0.018511536 -0.06273638 0.065949455
0.038352165 0.065661214 0.08190761 0.026372926 0.075882584 -0.050277647 0.03644124 -0.06804283
0.034841377 -0.09757606 -0.015337392 -0.049436893 -0.060331818 0.02385133 -0.023518834 0.05943591
-0.049803726 -0.07695265 -0.032164615 -0.047462106 -0.018338664 -0.032712232 -0.014199028 0.075992934
0.0558682 -0.0131356865 0.052908283 0.03578009 0.055849943 0.030012513 -0.015652977 -0.0036559221
0.08734402 0.038315635 0.029451782 -0.05987601 -0.06031673 0.00294606 -0.09449832 -0.05606302
0.01231331 -0.078748845 -0.058950406 -0.076484784 0.034287423 0.004185089 -0.030696379 -0.018688973
0.0076918635 -0.062574655 0.058025435 0.009746099 0.05921151 0.019029535 0.04871424 0.057059623
0.04169015 -0.08589739 0.05075665 -0.076407574 -0.078549914 -0.027747953 0.01178352 -0.04637562

weight_hh_l0 f4 [384, 128]
00000000: 81c9 4fbd 0291 b3bd f093 9cbd dedf be3b
00000010: b4ef 35bd c988 ab3c ccd7 a63c 6f2a 813d
00000020: 83da 833d e85b b73c b626 fdbb 7660 25bd
00000030: a402 fdbb a63f 583d 937f 093d 2cc2 dfbc
00000040: e8e1 3fbc 7bab ccbc 1b42 663d d0a0 cb3d
00000050: e90e 6a3d 3d8f c93d 6b6a d13b 84fd b43d
00000060: b6cc 5a3d 3790 323d 84e6 e53d b6bd 14bd
00000070: 5da3 debc 2606 2dbc 847d c1bd 771d 3abd
00000080: ca7b 653d adf5 d23d f44c 1b3c 5a94 473c
00000090: bb54 a7bd b44d 623d e5fa be3d 5251 cbbd
000000a0: dbd3 4d3d 6d51 33bd de16 a8bd b0a5 8b3d
000000b0: 8fc0 c1bd 92ce 5dbd 43a1 29bd beb7 9dbc
000000c0: d24b 9d3d 407a 0abe 8f44 bcbd 334e 39bd
000000d0: 5fc8 d9bc 1a43 d13d c59c 9fbd 8463 9bbd
000000e0: 3956 323d 0833 70bc de66 903c 6164 783d
000000f0: 3687 bb3d d1a7 a73b 7e3f 103c ee8d 10bd
00000100: 4769 953d 3710 3a3d 0931 8abd b297 fc3c
00000110: 8d8d 103c 8aa1 ce3c 6fe9 353d c201 33bd
00000120: ff87 1ebd 571c 96bd 381b 16bd 3a21 8c3c
00000130: 0199 7e3d 7dd1 743d 0686 2ebd 398e 0dbd
00000140: 634c 00bd 6f59 fdbc 337b 583d a70d 9c3c
00000150: 3c9a 66bc 88f6 22bd 6ac6 83bd 2865 39bd
00000160: ff3f 50bd 69eb d33c fbf4 d4bc ebf5 96bd
00000170: c8b8 92bc be33 85bc 8ff4 22be 5b83 a73d
00000180: db3e b53c 319f ad3c 0071 8fbc eafc 723d
00000190: 9e92 25bd 7001 453d ec96 e1ba a428 ebbc
000001a0: 2f1a 553d ac12 52bd 4092 15bd 7bd2 3b3d
000001b0: 7c31 873d b428 a2bd 57bc 91bd e3fc 8cbc
000001c0: 3316 ec3c 2c83 513d 5f65 62bc ef6d d1bd
000001d0: c4d8 543d 3634 cf3d 67ad 543d 1cfa 7f3c
000001e0: c144 15bd 41c6 503c 20f8 44bd 5ce5 90bd
000001f0: ce17 b73d 0d3e 1f3d ce86 853d 3fda 8e3d
00000200: fd03 04be aa39 a03b d1fb 1abd d9bf e2bd
00000210: a09f 773d 9293 b8bd e7af 3abd 9fda a5bd
00000220: 1dc1 c13c d333 78bd 9cf4 dbbd 0ffb 9d3d
00000230: c99b 623d 7787 56bc 8463 8fbd a25f c3bd
00000240: 1cc5 8fbc 5288 d8bd 94a7 c43d 0607 9d3c
00000250: 3df8 843d 5ab1 a03d 4641 edbc 8138 8c3d
00000260: 1a4d 753d 526f 55bd 81d7 053e 694a 47bd
00000270: 78cc 8a3a 17cf fd3c 3d68 673d fc2d ae3d
00000280: 82ec ae3d ce45 373e f3f4 ad3d e7b5 01bd
00000290: 8aa4 993d d6f3 b73d 51c6 f23d 37d9 15bc
000002a0: b05a d83c c872 edbd 151a 6bbd d823 6fbd
000002b0: 61c5 65be 8fcd 8ebc 93dd 083d 4544 853c
000002c0: 73ed 4cbd 7637 f6bc e141 443d b3d7 06bc
000002d0: 8434 743c 3f39 eebc bdd1 e3bd 4c7a 9fbd
000002e0: 9dc5 a6bc d904 5cbd 29a6 8abc f706 4d3d
000002f0: 4280 8d3c fa3f 42bd 065c 9d3c 713c 113d
00000300: 395b a73d 39e7 4abd 5f09 be3c 23b1 453d
00000310: a9b4 043d 0d3a 77bd 3212 a2bc e617 babc
00000320: 3b53 4bbd a4fe 3ebd 426a d2bd 3b78 9d3d
00000330: 8b8a 6e3d 20da 5abc cb3f 48bd a0fd 52bc
00000340: 264d 063c 1058 123d 2bcd fc3b d140 20bd
00000350: 21fa 8ebd 0487 cb3c d2ba c2bd eb4e 95bc
00000360: 39dd 0e3c c414 a53d c50b 50bd 4e5b 1c3d
00000370: 7bee b93d dda2 7bbd b75a 1639 d064 2ebd
00000380: def8 5c3d d602 5d3d 5e6b fd3d 7505 de3c
00000390: 116d c43d ac57 883c 423b 1ebd 4e17 df3c
000003a0: cf78 4ebd 47aa b83b 51df 8cbc 2467 c5bd
000003b0: 76fd 4dbc 6d49 0a3d aef3 6cbd 923e 07be
000003c0: c5f9 9a3d 141b 853d ef16 6e3d fe60 1fbd
000003d0: da14 9ebc cfc2 643c b2c4 7abd 0ad6 163d
000003e0: dd1e 753d 1d40 703d 2bfe 63bd 3178 e3bd
000003f0: 97ef c53d ae9d ddbc 4198 4dbd a6da 70bc
-0.05072928 -0.087678924 -0.07645404 0.005825027 -0.04441805 0.020939248 0.020366572 0.06306922
0.06438162 0.022382692 -0.007725562 -0.040375195 -0.007721262 0.052795075 0.03356893 -0.027314268
-0.011711575 -0.024984112 0.056215387 0.09942782 0.057143126 0.09841774 0.00639086 0.08837417
0.053417884 0.043594565 0.11225608 -0.036313735 -0.027177507 -0.010560548 -0.09447768 -0.045438256
0.056026258 0.10300765 0.009478796 0.012181366 -0.08170458 0.055249885 0.09325198 -0.0992762
0.05025087 -0.043778826 -0.082074866 0.06818712 -0.09460556 -0.05415208 -0.041413557 -0.019252654
0.07680477 -0.13523197 -0.09192764 -0.045240592 -0.026584802 0.10217877 -0.07793573 -0.075873405
0.04353926 -0.014660604 0.017627176 0.060642604 0.09156649 0.005116441 0.0088042 -0.035291605
0.07295471 0.04542562 -0.06747634 0.030834053 0.008822811 0.025223512 0.044412073 -0.04370285
-0.038703915 -0.07329624 -0.03664705 0.017105687 0.062157635 0.059770096 -0.042608283 -0.034559462
-0.031322848 -0.030926434 0.052851867 0.019049479 -0.014074858 -0.03978589 -0.06434329 -0.045262486
-0.05084228 0.025869088 -0.025995722 -0.07371124 -0.017910376 -0.016260024 -0.15913604 0.08179351
0.022124698 0.021194072 -0.017509937 0.05932323 -0.04042303 0.048097074 -0.0017211116 -0.028705902
0.052026924 -0.05128734 -0.036516428 0.045855027 0.06601235 -0.0791792 -0.07116001 -0.01721043
0.02881918 0.051150486 -0.013818114 -0.10226046 0.051964536 0.1011738 0.05192318 0.015623596
-0.036442522 0.01274258 -0.048088193 -0.07074997 0.08940087 0.038877536 0.065198526 0.06975221
-0.12892146 0.0048896866 -0.037837807 -0.11071748 0.060454965 -0.09012522 -0.04557791 -0.08098339
0.023651654 -0.0605963 -0.10740015 0.07713901 0.05532435 -0.013093821 -0.07001403 -0.09539725
-0.017550044 -0.10572876 0.096022755 0.019168388 0.0649266 0.07846327 -0.028961789 0.06846715
0.059887983 -0.052108116 0.1307049 -0.048654947 0.0010589501 0.030982537 0.056495894 0.085048646
0.08541204 0.17897722 0.08493986 -0.031667616 0.075020865 0.08982055 0.11854232 -0.009146026
0.02641043 -0.115941584 -0.05739792 -0.058383793 -0.22438575 -0.017432002 0.033414435 0.016267905
-0.050031137 -0.030055743 0.04791439 -0.008230138 0.014905099 -0.029080031 -0.11123989 -0.07786998
-0.020357901 -0.05371556 -0.016924934 0.05005547 0.017273072 -0.047424294 0.01920892 0.035458032
0.08171696 -0.049536917 0.023197828 0.048264634 0.032398853 -0.060358096 -0.019784067 -0.022716474
-0.04963992 -0.046629563 -0.10274173 0.07688948 0.058237594 -0.013357669 -0.048888963 -0.012877852
0.008197105 0.035728514 0.0077148876 -0.039124314 -0.06981302 0.024844654 -0.095082894 -0.018226108
0.008719736 0.08060601 -0.050792474 0.038173012 0.0907869 -0.061434615 0.00014338909 -0.04257661
0.053948276 0.053957783 0.12373994 0.027102211 0.09591115 0.016643368 -0.03863073 0.027232792
-0.05040818 0.005635533 -0.01719633 -0.09638813 -0.012572637 0.03376143 -0.05784958 -0.13207462
0.07567171 0.06499305 0.05812734 -0.03891086 -0.019297052 0.013962462 -0.06122274 0.036825217
0.059843887 0.058654893 -0.055662315 -0.11106909 0.09664839 -0.027052727 -0.05019403 -0.014700567
