outputs/models/vae_drumlab_mse_2.model (torch_old, 855527 bytes, 38 tensors)

weight f4 [128, 27]
00000000: e8fd 203f a574 263f 14f2 7e3f 1c52 9e3e
00000010: fd5a 243f 2cd7 353f 3006 9f3d 58ae 1b3f
00000020: 70b6 b03d 5824 5e3f b057 693d 40ae ec3e
00000030: acdf 633f 78ab ba3e d09c 003d a1a7 573f
00000040: 71b3 143f a193 0f3f 8094 1b3c 6e7b 133f
00000050: da13 c73e b48a 533f b04a 7f3f 9fad 4e3f
00000060: 0f0d 2b3f 512a 4e3f 60bb 583f 7a96 4e3f
00000070: 16bf 0f3f 2333 7e3f 3012 273d e0b6 d43c
00000080: ceda d73e 0024 c13e 2ef9 cc3e ed2f 413f
00000090: edf8 1b3f 5b86 6d3f ef28 4d3f 087a d83d
000000a0: 63fe 263f 7a39 0b3f dc59 2d3e 0347 073f
000000b0: 8ce9 223e f9af 203f 56d4 243f b8f9 cf3d
000000c0: 389e 163e 9c03 513f 223d 683f 9ace f63e
000000d0: 1a8e 9f3e 48fc 5b3f 80b0 f63c 60a3 223f
000000e0: 861d 4c3f 7506 0c3f 5009 783d 3840 483e
000000f0: 262d ee3e 70f8 5e3d b48f 533f 40c8 e73e
00000100: 928d 5a3f 7222 eb3e f785 773f 6c25 773f
00000110: 5b02 2d3f e65d 3b3f 3057 e33e a019 d13d
00000120: d807 cf3e cfff 533f ecc0 473f 940e 743e
00000130: 88a8 a43d 0736 773f c74c 133f 3047 e93d
00000140: 29de 6e3f 0b12 213f a570 3b3f 492a 6a3f
00000150: 4826 103e 2801 3e3f 28cd 213e b3de 1b3f
00000160: 5e76 a73e 8f6b 503f 0026 163c 188d 0a3e
00000170: b07e 733d cf16 7d3f 848e 433f dcd8 5a3f
00000180: 24fa cb3e 1827 4b3f 0465 0d3e 419f 1f3f
00000190: 4af5 253f 9d3e 3c3f b0df e93e 80e5 df3d
000001a0: 8c5d 033f 30d5 683f ce64 bf3e 5096 8f3e
000001b0: fffa 233f cab4 dd3e 1952 3f3f 6ce0 563e
000001c0: 06e1 683f 439d 563f 1c3b a43e e28d 803e
000001d0: c898 543f 6e48 8d3e 50d1 cc3e b46f 3b3e
000001e0: 4c0f 293f 2e75 913e 4531 573f 72d8 c83e
000001f0: c0ec 043e b220 453f b055 543e 70e0 543d
00000200: 385c 823e ef44 783f 1a5f 233f f6ba a43e
00000210: 0c1d 003f 8e64 753f a678 223f da34 6a3f
00000220: 235f 753f 8667 483f f03e 723d 5838 2f3f
00000230: 80da b43b 10d8 b83e 8f2d 063f c82e 743f
00000240: 1cf9 4d3e 400e 223f b0e3 1d3f 36da 8c3e
00000250: 5464 d03e fcdd e83e 92b4 313f 70cd c73d
00000260: 1d4a 4a3f d0cd 6b3e 780c 793f 10d8 3d3e
00000270: 6837 623e 7dc3 603f 22ec a73e 2410 0a3f
00000280: 066f 5d3f c9f6 553f 9c4a 043f 57cc 683f
00000290: 1d63 3c3f 56ea 613f e0a6 c43e 17fa 133f
000002a0: 4852 853e a41f 923e 2906 383f fec0 f63e
000002b0: ffec 073f 00ad 533b 80d6 003d 18bb c53e
000002c0: 3848 723e 2a05 e93e d2d5 e63e 1c02 1c3f
000002d0: c2a5 2b3f e0ed 293e 0a3e b43e 4897 4a3e
000002e0: aa10 5b3f 89a1 2b3f d331 0a3f 094a 013f
000002f0: d011 713d f2eb e93e b0bd f63d 16ab a93e
00000300: 2a48 243f eb20 1c3f 5d0d 723f 1a29 463f
00000310: fd57 513f 00ea 853e ee93 3e3f 00dc 0a3a
00000320: a8c5 ad3e 72b6 f93e 7496 083e a46c 773e
00000330: 7c2a 083e 383f 793f b0b5 193e aeb9 033f
00000340: 0049 3e3b ec63 5f3e 91e3 5c3f 884d e63d
00000350: 8c29 533e 7534 0a3f c8f2 a83d b0cc e73e
00000360: 8158 1b3f 2027 083d 5101 143f d2de 6f3f
00000370: c0ea a73c 2bd3 443f 609f 183e abba 7c3f
00000380: cc22 023f 6fb1 0c3f d08b 073d 2089 2c3e
00000390: 8eac 763f beda 043f e332 1d3f 1cbb 223e
000003a0: 6c9d 053e dc49 683e 7ceb 503f 14dc 9d3e
000003b0: 9aec 163f 805e e33d b66f 933e 3021 ed3d
000003c0: f852 493f 1a6f 3d3f a8c9 873e 7d87 453f
000003d0: a087 6f3e 573f 423f f144 453f 146b 473e
000003e0: 6f2b 3a3f 400a 7e3f 11b6 373f 3062 e03d
000003f0: 19bd 643f 86ea 803e ca0e 413f 40ec 573e
0.6288743 0.65021735 0.9958813 0.3092202 0.6420134 0.7103145 0.07764852 0.608129
0.08628547 0.86774206 0.05696839 0.46226692 0.8901317 0.36458945 0.031399548 0.84240156
0.58086306 0.5608464 0.009495854 0.57610214 0.38882333 0.8263352 0.9972334 0.80733675
0.668168 0.8053332 0.8466091 0.8069836 0.5615095 0.9929678 0.04078883 0.025966108
0.42159122 0.37722778 0.4003386 0.75463754 0.60926706 0.92783135 0.80140585 0.105701506
0.65231913 0.5438458 0.1692881 0.5284273 0.15909404 0.6276851 0.643865 0.10155052
0.14708793 0.8164613 0.9071828 0.482045 0.31163102 0.85931826 0.030113459 0.6353054
0.7973255 0.5469735 0.060555756 0.19555748 0.4651882 0.054436147 0.8264115 0.45269966
0.8537227 0.45924717 0.9668879 0.96541476 0.6758172 0.7319015 0.44402456 0.10209966
0.40435672 0.8281221 0.7802875 0.23833686 0.08039957 0.96566814 0.5753903 0.11390531
0.9330774 0.62918156 0.73218757 0.9147077 0.14077103 0.74220514 0.15800917 0.6088669
0.32707494 0.8141412 0.009164333 0.13530385 0.05944699 0.9886293 0.76389337 0.8548715
0.3983928 0.7935653 0.13808066 0.6235238 0.64827406 0.7353304 0.45678473 0.109324455
0.51314616 0.909503 0.37381595 0.28044367 0.64054865 0.43301994 0.74734646 0.20984048
0.9096836 0.8383371 0.32076347 0.25108248 0.83045626 0.27594322 0.40003443 0.1830433
0.66038966 0.28409714 0.84059554 0.39227635 0.12980938 0.77003014 0.20735812 0.051971853
0.25460982 0.96980184 0.6381699 0.3217389 0.5004432 0.9585656 0.63465345 0.91486895
0.9584829 0.78282964 0.059142053 0.6844535 0.0055192113 0.36102343 0.52413267 0.9538388
0.20114559 0.63302994 0.6167555 0.27510232 0.40701544 0.4548186 0.69416153 0.09755981
0.7901934 0.2302773 0.9728465 0.18539453 0.22091448 0.8779829 0.32797343 0.5393088
0.86497533 0.8357969 0.51676345 0.909368 0.73588735 0.88248193 0.38408566 0.5780348
0.26039338 0.28539765 0.718844 0.48194116 0.53096 0.003229916 0.031454563 0.38619304
0.23660362 0.45511752 0.45085007 0.6094072 0.670498 0.16594648 0.35203582 0.19784272
0.855723 0.6704336 0.53982276 0.50503594 0.058854878 0.45687824 0.12047899 0.3313834
0.64172614 0.6098773 0.9455164 0.77406466 0.81774884 0.2615509 0.7444447 0.0005297065
0.33939862 0.48772007 0.13338643 0.24162537 0.13297457 0.9736209 0.15010715 0.514552
0.002903521 0.21815461 0.8628474 0.11245257 0.20621318 0.53986293 0.08249432 0.45273352
0.6068192 0.033240438 0.5781451 0.9369937 0.02049768 0.76884717 0.14904547 0.9872233
0.50834346 0.5495824 0.03309232 0.16849184 0.9635705 0.51896274 0.6140577 0.15891689
0.13048333 0.22684425 0.8160932 0.3083197 0.58954775 0.11102009 0.28796166 0.11578596
0.78642225 0.7399765 0.2652104 0.77159864 0.2339158 0.758779 0.7705832 0.19474441
0.72722524 0.9923439 0.71762186 0.10956228 0.8935104 0.25178927 0.7541319 0.21086216

bias f4 [128]
00000000: 1ffe d53d 2a83 c43d 7cf1 dc3d 6ad0 c53d
00000010: 1737 c53d e074 c03d 89ff c33d 1d3a c33d
00000020: b206 c73d c699 d03d 98a3 d83d 8b6d c43d
00000030: 8d78 d53d 7a7f d03d c4f9 d43d 94a9 c73d
00000040: a3c5 d73d fefe da3d fe96 d33d f037 c63d
00000050: b7c7 d33d 252e c63d fd5a cb3d ddec c23d
00000060: 94d0 c23d 1519 cb3d b1e9 d73d 6477 d73d
00000070: a9b6 d23d 5213 c63d af16 d73d 4cf5 c73d
00000080: 55a4 cf3d 7b43 d23d ea39 d53d 335f c43d
00000090: 2160 cf3d 2b9c da3d c29f bf3d c4a2 cd3d
000000a0: 6d78 da3d 3acc d23d 1d51 d63d c9cf c43d
000000b0: dc30 ca3d 6a9f c93d 384d c43d 9dd6 c43d
000000c0: a5f9 da3d c81c c83d bf11 cf3d 2eef d53d
000000d0: 5153 cb3d 3cda d53d 1a84 c53d 6a5a d83d
000000e0: bdb6 ce3d 1ee7 c53d ee93 c43d 6547 ce3d
000000f0: f246 d73d d797 d63d f696 d23d dc6d da3d
00000100: a4c2 da3d 59fc cf3d 4be5 bf3d 48c0 c53d
00000110: a71b c73d 575f c63d f317 d83d df9d d13d
00000120: bb11 c73d ebfd d53d 25bf d63d ba9e d23d
00000130: 8b01 d63d fd7a cc3d 59dd da3d d41b d63d
00000140: 37df d63d fdf6 d93d bd43 c13d 74ef d43d
00000150: 7768 cf3d 9b35 d93d 874e c53d ca29 cf3d
00000160: f249 d23d a34c d13d 4188 d33d 5071 cb3d
00000170: 1902 c53d 836d d73d 7c08 d33d d7a7 c13d
00000180: 45f6 ce3d 9fa3 c73d 2b84 cd3d 2f57 d83d
00000190: 6d44 d43d 7ea5 d83d 4144 d83d 975e c53d
000001a0: 66f7 d43d 3bac d53d 6ef1 be3d 33c1 c53d
000001b0: 656c d63d 8163 c23d 19aa c63d 5aa4 d33d
000001c0: e211 c43d 3b8a d73d 2cd8 ca3d a953 c63d
000001d0: d7c3 d63d 8743 d43d d1be cc3d 71d7 c43d
000001e0: 5929 cb3d 3ce7 d23d 37dd c43d b1f3 c53d
000001f0: 1f75 cd3d 56b0 d63d 94f5 d83d 659b c93d
0.104488604 0.0959533 0.10788247 0.096588925 0.09629648 0.09397292 0.09570224 0.095325686
0.09718074 0.1018558 0.10578078 0.09591206 0.10423384 0.10180564 0.103992015 0.09749141
0.10535743 0.10693167 0.10331534 0.09678638 0.10340827 0.0967677 0.09929464 0.09517834
0.09512439 0.099168934 0.1054262 0.10520819 0.10288746 0.09671654 0.105023734 0.097635835
0.10138766 0.10266777 0.10411437 0.0958847 0.10125757 0.10674318 0.09356643 0.10040811
0.10667501 0.102928594 0.1046469 0.096099444 0.098726004 0.09844859 0.09585041 0.09611247
0.10692147 0.097711146 0.10110807 0.104460105 0.09928001 0.104420155 0.09644337 0.1056412
0.10093448 0.09663223 0.09598528 0.10072211 0.105115786 0.1047818 0.102827 0.10665485
0.10681656 0.10155553 0.09369906 0.09655815 0.09722071 0.096861534 0.10551443 0.1023519
0.09720179 0.10448822 0.10485677 0.10284181 0.10449513 0.09984396 0.1068675 0.104545265
0.104917936 0.106428124 0.09436748 0.103972346 0.10127347 0.106059276 0.096341185 0.101153925
0.1026801 0.102196954 0.10328723 0.09933722 0.09619541 0.105189346 0.10304353 0.09455841
0.10105566 0.09748005 0.10034975 0.10563504 0.10364614 0.1057844 0.105598934 0.09637182
0.1039875 0.10433241 0.09323393 0.096559905 0.10469893 0.09491635 0.09700412 0.10334082
0.095737234 0.10524412 0.09904513 0.09683926 0.10486572 0.10364442 0.09997333 0.09611405
0.09919996 0.10298011 0.09612506 0.09665621 0.10032105 0.10482852 0.10593715 0.09844092

weight_ih_l0 f4 [128, 128]
00000000: bd01 6c3d 85cf 9fbc c0e8 fd3c d4d2 86bd
00000010: 75a0 ec3b b7a4 9cbd 6266 03bd ef85 893d
00000020: c486 36bc da95 46bd 69e0 5f3d 348d ebbc
00000030: 2a73 03bc f7f1 2dbd fd18 92bd dfc1 313d
00000040: 5c74 373c 9f3c bc3d eaad 8e3d c063 80bd
00000050: 21d0 84bb 7d71 433d 9b0d 4abd bc22 2f3c
00000060: 7a5c a73d fe43 603d 6836 80bd 70b1 a83d
00000070: 0dfc 823d 43e5 2f3d 1adc 24bd a722 cebb
00000080: 9481 9a3d d61f 323c 803e 45bd 5fad 523c
00000090: 1354 6dbd 221d 29bd d68e 5c3d 3633 7ebd
000000a0: 60c8 003d 4ad2 343b 2bf6 a23d 1a0d 8dbc
000000b0: 3acd 99bd a198 1e3d 7583 d63c 4012 a3bd
000000c0: e7ee ecbc 31da ef3c 7f1d 3a3b c194 743d
000000d0: 8d6e 7c3d 79a1 1d3d 5244 4b3d 2f2e 783d
000000e0: ba9f 6d3d 5093 a9bc 9076 0e3d 370b 35bd
000000f0: c393 9b3d d034 7d3d e63c 6c3c b588 453c
00000100: b371 1bbc 0bc2 92bb 6745 1d3d 2a3b 60bd
00000110: 5855 24bd e399 9ebd 30ef 183d a6a3 0a3d
00000120: f2ad 34bd 2daa b83d 8230 97bc 545c 993c
00000130: 3fdc 793d fe9e 653d 89aa 57bd 9264 b83d
00000140: 8431 e2bc c0d6 9bbd 5de0 94bc 9123 87bc
00000150: ec53 77bd b711 76bd 0f0e 40bc 1d74 af3d
00000160: 3a24 1bbd ec7e a73d 1177 2c3d 7e65 3d3d
00000170: 4d97 abbc 3cb9 01bd a571 ddbc 1549 70bd
00000180: f5b4 54bc 8dfe 6cbb b342 6b3d a2ed 203d
00000190: 3e6d db3c a2e8 e2bb 2a89 903d 6bb4 923d
000001a0: 4685 8aba 32f7 90bd 428f 32bd d08d dbbc
000001b0: daa5 a93d 990d 2ebd 7825 ed3c 8e4e f83c
000001c0: a3de 14bd bbe1 81bd 83f1 b13d 9f6e 12bc
000001d0: 7582 b13d 4351 80bd 23d0 183c 4289 853d
000001e0: e08e bd3d daef 413d f8b9 f23c 1da2 a33d
000001f0: 2101 393d 6130 89bd 844f b73b ca7e a63d
00000200: 987b b3bd b0d1 0abc 859e 863c 4735 033d
00000210: 121d c5bc 873a b63c d0e4 c1bc 2925 4b3d
00000220: ce3a 90bd 8ba6 383d 56fc 013d a0a1 b93c
00000230: 8921 91bd f4d4 5d3d dc04 f23c 2014 213d
00000240: e382 df3a 6582 12bd 34bb fbbc 06a3 133d
00000250: cbe7 2dbd 9845 2abd 5aa5 c8bc 676a 90bb
00000260: dc9b 50bd 30bb 893d 7ba3 113d bf4f a73d
00000270: fcc4 833c a947 33bc 094f 8fbc d328 5b3c
00000280: 42f6 893d 3353 103c fa87 31bd cdec 71bd
00000290: 5eb3 033d 21ad b73c 7daa 423d 22f1 9fbd
000002a0: 512c 493d 6ba4 36bd a487 cfbc 9435 47bd
000002b0: 2bcf cebc 4607 e3bc e348 833d b63c 08bd
000002c0: e1ee d73c ab66 22bc 787f 4c3c 11c8 af3d
000002d0: 6745 96bc 13f7 8abd 26b8 9f3d 42ea 80bd
000002e0: fa4c 44bd 5629 a73b 1a2e 7fbd 009f 903d
000002f0: afa4 203c 5bb5 87bc 14e4 d6bc d60a fa3c
00000300: 9349 50bc c0ad 893c 2366 983c 9a12 0e3c
00000310: ae56 e23c f3c9 903b 8ad0 013d 5ee9 9dbd
00000320: e88a 0e3d dbb6 4e3c 5f56 3a3c e33f 70bd
00000330: 2d57 78bd e014 eb3c 59df 923d f45d 943d
00000340: 1f3a 6a3d 0ea8 153b 46c5 813d 977d 1cbd
00000350: 37ab 1e3d 31c7 9d3c b2ce 833c d59d 60bd
00000360: 47be ebbc 5a71 f3bc f62e a53d 159e 9b3c
00000370: 69ef 9ebd 89f0 c63c c427 463d e291 753c
00000380: 8f2a 80bc ab04 0b3d 0b20 9bbd dd6a 313d
00000390: 6a17 143c f407 61bc 6f9c a03d 64e8 7bbc
000003a0: edc1 7cbd 07f8 7f3d 1b5b 7abd b73b 8dbd
000003b0: d9b2 75bd 0851 9a3d 4a3c 1cbc 6e49 fbbc
000003c0: 536f 69bd 3b25 4b3d 717e 5d3d 3d71 2abd
000003d0: 9a48 4dbc ee01 7d3d f3fa abbd 8e13 423d
000003e0: 86d3 b4bd eea4 ad3d f00e 82bb d436 983d
000003f0: e67b 2d3d bd0a 1cbd ea96 59bd 97a6 a33d
0.057618845 -0.019508133 0.030994773 -0.06583181 0.0072212764 -0.07648604 -0.03208006 0.06714999
-0.011140529 -0.048482753 0.054657374 -0.028753854 -0.008023063 -0.042467084 -0.071336724 0.04339778
0.011197176 0.0919125 0.06966765 -0.06269026 -0.004053131 0.047715653 -0.04932938 0.010689434
0.081719354 0.054752342 -0.06260377 0.082369685 0.06395731 0.04294325 -0.040248968 -0.006290752
0.07544246 0.010871848 -0.048155308 0.012858718 -0.057941508 -0.04128755 0.053847156 -0.062060557
0.031441092 0.0027591162 0.07957109 -0.017218161 -0.07509847 0.038719777 0.02618573 -0.07962465
-0.028922511 0.029278846 0.0028398929 0.059712175 0.061628867 0.03848407 0.049625702 0.06059092
0.058013655 -0.020700127 0.03478104 -0.04420015 0.07596543 0.061817944 0.014418816 0.012056519
-0.009487557 -0.004478698 0.038396265 -0.054743923 -0.040120453 -0.07744195 0.037337482 0.033847474
-0.0441112 0.090168335 -0.018455748 0.018720783 0.06100106 0.05605983 -0.05265287 0.09003557
-0.027611502 -0.0760932 -0.018173391 -0.016496452 -0.06038277 -0.060075488 -0.011722102 0.08567069
-0.037876345 0.08178505 0.042105738 0.04623937 -0.02094617 -0.031670794 -0.027031729 -0.058663446
-0.012982597 -0.0036162466 0.057436656 0.039289124 0.02678549 -0.0069247046 0.07057412 0.07163318
-0.0010568283 -0.07078399 -0.043593653 -0.02680102 0.08283587 -0.042493436 0.02894853 0.030310895
-0.036345135 -0.06341883 0.08688643 -0.008937507 0.08667461 -0.062654994 0.009326967 0.065203205
0.09255767 0.04734788 0.029629692 0.07989905 0.045167092 -0.06698681 0.005594196 0.08129652
-0.08763808 -0.008472845 0.01643301 0.03203323 -0.024061713 0.022244705 -0.023668677 0.049595986
-0.07042466 0.045080703 0.031734787 0.022660077 -0.070864744 0.054158166 0.029543333 0.039325833
0.0017052557 -0.035768885 -0.030728914 0.036044143 -0.042457383 -0.041570276 -0.024492908 -0.0044072154
-0.05092989 0.06725156 0.035556298 0.08169507 0.01608514 -0.010942378 -0.017493742 0.0133764325
0.06736423 0.008808899 -0.043342568 -0.05906372 0.03215348 0.022421421 0.04752587 -0.07809664
0.04911453 -0.044590395 -0.025333233 -0.04863508 -0.02524527 -0.02771343 0.064103864 -0.033261023
0.026359024 -0.009912173 0.012481563 0.085830815 -0.01834364 -0.06785407 0.077987954 -0.06294681
-0.047924973 0.005101363 -0.062299825 0.07061577 0.009804889 -0.01656597 -0.026231803 0.030522745
-0.012712854 0.016806483 0.01860339 0.008671427 0.027629223 0.0044186055 0.03169302 -0.07710527
0.03480044 0.012616838 0.011373132 -0.058654677 -0.060630012 0.028696477 0.071715064 0.07244483
0.057184335 0.0022835764 0.06336455 -0.03820571 0.038737502 0.01926002 0.016089771 -0.05483802
-0.028777255 -0.029717136 0.08065598 0.018996278 -0.077605076 0.024284618 0.048377767 0.014988394
-0.015645294 0.03394 -0.07574471 0.043314803 0.0090387855 -0.013734806 0.07842337 -0.01537523
-0.06170838 0.062492397 -0.06112204 -0.06896155 -0.059985016 0.07534987 -0.009535858 -0.030674662
-0.056990933 0.049596053 0.054075662 -0.0416119 -0.012529517 0.06176942 -0.08397474 0.04738193
-0.088294074 0.084787235 -0.003969066 0.07432333 0.042354487 -0.03809618 -0.05312244 0.07990759

weight_hh_l0 f4 [128, 128]
00000000: ccd5 463d aab9 30bd 1879 71bd dcd6 9abd
00000010: 60a4 573b 3460 16bd b8d8 52bd 0e69 9a3c
00000020: 5867 dabc 50ff e4bc 4ed0 073d aa44 f63c
00000030: 6e6c 893c f55d fb3c 2b31 0ebd 881b 3fbc
00000040: f7aa 9a3d c264 043c f01a df3c 5212 403c
00000050: 2120 873d d72d 94bd 22ce 19bb cb76 62bd
00000060: fd76 93bd bc72 fe3c 408c 7dbd e4d3 403c
00000070: 4836 9e3c 6ea2 493d 00cf e9bc 0ba5 24bd
00000080: 20b1 90bc 91e7 f3bc 7682 e3bc e675 763d
00000090: 107f 723c f272 12bd 2844 9dbd d8a6 0ebc
000000a0: ed7f ac3d 4bbd 253d b0d6 b43d 0e61 9bbd
000000b0: 9a9b 48bd e885 aebc d3ec a7bd f098 8ebc
000000c0: 40e3 923b e2ae 99bd a3d1 343d ab47 8fbd
000000d0: eeed 3e3d efe7 3bbd 101a 44bd 5b18 ab3d
000000e0: ef2e a93d 2b17 52bc 40fc 8c3b 5c2d 533d
000000f0: de4f 5f3d a76e 28bd c1e1 18bd d0d3 7d3d
00000100: 20fb a03d bee0 ddbc 224f b03d 559a a33d
00000110: d9c7 18bd 1b83 0a3c 87dd 1bbd 012e 9e3d
00000120: 9134 a83d 8f01 ab3d 97f6 933d 22b0 a53d
00000130: e6cf 7a3d 0aa0 65bd 1846 083d 3a4c 91bd
00000140: a6eb 263d b003 f4bc 8eb6 1abd 1313 e8bc
00000150: 3fd3 e63b 2ac3 3fbc 6aba 95bd d0d9 8dbb
00000160: 1029 40bc 3488 d4bc b7f5 febc 0dc7 60bc
00000170: 2d2d e23c 7877 153d 3c86 bd3c d20c 87bd
00000180: f537 a63c 52f3 9e3d e85b 71bc 184a 15bd
00000190: c01a adbb bf99 51bd 6596 b13d 84a2 c2bc
000001a0: 54b8 b2bc ad5e 9c3d 98aa b33d 7fe4 3bbd
000001b0: 0a5f 2b3d 8949 893d dd4c 923d 646d 22bd
000001c0: ab03 963d c728 d73c 065e 74bd 48e9 83bd
000001d0: 9d5b 05bd d633 ad3d 0afa 533d 653d b93c
000001e0: da37 92bd 29fc d93c 1a4a 4f3d dc65 5ebd
000001f0: fa87 cdbc f602 5abd fc6e 61bc d466 ebbc
00000200: 90df 7cbd 37c3 1c3d 7edb 913d 6dde a53d
00000210: 70a9 5f3c 5d5d 6f3d c8b3 12bc 7e62 23bb
00000220: 8125 26bc 31c9 393d 3ee5 c4bc eb88 503d
00000230: 44cd af3d 03a9 913d 0e80 babc 9082 a1bc
00000240: 6119 4e3d f2eb 71bd bb39 d53c adae 74bd
00000250: 101d ea3b 274b a13c bc87 6d3d 1227 ec3b
00000260: 9e7a a33d 50ef 003c 64c8 13bd c7a0 0f3c
00000270: 5866 2cbd 8d03 5abd bce4 e6bc a421 b03c
00000280: a407 cfbc ed65 e7bb 47dc 02bd 65c9 853d
00000290: b0df 8e3c cf10 3e3d 6bec b0bd 841e ac3c
000002a0: a235 9fbd a2e7 693d 3653 153c a2be 8fbd
000002b0: 31fb 513d a515 f53c 79b1 7abd e9c8 a93d
000002c0: a86f a33c b88b 93bd 22df 2e3d 40e9 c6bc
000002d0: c4b3 bd3c 982f 033c 7178 a43d 025d 55bb
000002e0: 1a36 7d3d a958 f23c e302 3fbd 8141 47bd
000002f0: 9961 b43d 163e 56bd 4136 813c b73b 863d
00000300: 3cc4 fbbc cac6 67bd 76f4 a3bd ffeb e63c
00000310: 75ec 753d b077 033d a351 4abd d55d cc3a
00000320: c8d8 a63c 508b 24bc 88d8 fcbc f632 cc3c
00000330: 5b86 60bd 38a0 9ebd 3c40 5bbd ea04 393d
00000340: 6ebf acbd b279 80bc 456a 9dbd 9669 acbd
00000350: 6237 83bd 8815 c83b 9abe aabd 0aa1 b4bd
00000360: 407e 0bbc 34d2 56bd 8e03 86bc 0534 aa3d
00000370: bd89 a63d 40ef 473b 3198 9dbd 621e a5bd
00000380: 918f 1a3d 98d7 8f3c 9a71 6e3d ace7 453d
00000390: 828c 483d aee5 a1bd d121 45bd 2db9 afbd
000003a0: 9e86 3d3d e035 823c 6da8 5ebc db7d 3dbd
000003b0: d888 373c ca33 e13c 465b 513d ab51 ebbc
000003c0: 233d 893d 8477 08bd e2b5 293d 54ea 82bd
000003d0: 7803 a13c 5b4f b03c afb3 813d 3b35 98bd
000003e0: d06c 163c faa0 9ebd c41f 043d ec73 a8bd
000003f0: eba5 0dbd abcd b63d acfd a03d 5a13 0dbd
0.048543736 -0.043145813 -0.058953375 -0.075605124 0.0032904372 -0.03671284 -0.05147621 0.018848922
-0.026660606 -0.027953774 0.03315764 0.030062038 0.016775336 0.03068445 -0.03471486 -0.011664279
0.0755214 0.008080663 0.027234524 0.011723118 0.06597925 -0.07235306 -0.0023468812 -0.05528907
-0.072004296 0.031060569 -0.06190133 0.011769269 0.019312993 0.04922717 -0.028541088 -0.04019646
-0.017662585 -0.029773505 -0.02777217 0.06017103 0.014800802 -0.03575415 -0.076790154 -0.008706771
0.084228374 0.040463727 0.08830011 -0.07586871 -0.04897652 -0.021304086 -0.081994675 -0.01740691
0.0044826567 -0.075040594 0.044145238 -0.069960915 0.046613626 -0.045875486 -0.047876418 0.08354255
0.08260905 -0.0128229065 0.0043025315 0.05155693 0.054519527 -0.04112115 -0.03732467 0.06196958
0.07860398 -0.027084704 0.086088434 0.07988421 -0.037299965 0.00845411 -0.03805306 0.07723618
0.08213151 0.08349907 0.07224768 0.08090235 0.061233424 -0.05606083 0.03326997 -0.07094617
0.040752076 -0.029786915 -0.037771754 -0.028329408 0.0070442255 -0.011704246 -0.07310946 -0.004328944
-0.01172854 -0.025943853 -0.031123025 -0.013719332 0.027609432 0.036490887 0.023135297 -0.06594242
0.020290354 0.077612534 -0.014731385 -0.036447614 -0.00528273 -0.051172014 0.086712636 -0.023759134
-0.02181641 0.076352455 0.087727726 -0.045872208 0.041838683 0.06703479 0.07143567 -0.039655104
0.07324918 0.026264561 -0.05965998 -0.06440979 -0.032558072 0.084571525 0.051752128 0.022612283
-0.07139559 0.026609497 0.050607778 -0.05429636 -0.025089253 -0.05322548 -0.013759371 -0.028735556
-0.061736643 0.03827211 0.07121943 0.08099065 0.013651237 0.058438648 -0.008953996 -0.0024930532
-0.010140778 0.045357887 -0.024035092 0.050911825 0.08584073 0.071123146 -0.02276614 -0.019715577
0.050317172 -0.059062906 0.026028505 -0.059736896 0.007144578 0.019689156 0.057990775 0.007206806
0.07982372 0.007869557 -0.03607978 0.00876636 -0.04208979 -0.053226043 -0.02818524 0.021500416
-0.025272198 -0.007061711 -0.031948354 0.065325536 0.017440647 0.04640275 -0.08638843 0.021010645
-0.077739015 0.057105668 0.009114077 -0.07018782 0.051264945 0.029917547 -0.061204407 0.08290274
0.019950703 -0.072043836 0.042693265 -0.024281144 0.023157008 0.008006953 0.08030785 -0.0032556658
0.061819173 0.029583292 -0.046633612 -0.048646454 0.08807678 -0.052305304 0.01577294 0.065543585
-0.03073322 -0.056586064 -0.080056116 0.028188704 0.060039956 0.032096565 -0.04939426 0.0015591929
0.020367041 -0.01004298 -0.030864969 0.024926644 -0.05481563 -0.07745403 -0.053528056 0.045170702
-0.0843495 -0.015683029 -0.07686285 -0.084185764 -0.06407048 0.0061060824 -0.083371356 -0.08819778
-0.008513987 -0.05244656 -0.016359117 0.08310703 0.0813174 0.0030507594 -0.07695044 -0.08062436
0.03773457 0.017558858 0.058213808 0.048316643 0.048962124 -0.07905136 -0.048127953 -0.08580241
0.04627096 0.01589483 -0.0135899605 -0.046262603 0.01120206 0.027490515 0.051112436 -0.028725466
0.06701114 -0.033317104 0.041433223 -0.06392351 0.019654974 0.021522215 0.063331 -0.07432028
0.009181216 -0.077455476 0.032256857 -0.08225235 -0.03458206 0.08925947 0.07860884 -0.034442283

bias_ih_l0 f4 [128]
00000000: 2829 78bc 4b1d f93c a760 983d e3ad 88bd
00000010: 96cc 4ebd f0fd 7a3d e0bb a2bd 2081 ddbc
00000020: 8faf 033d 553a c33b 9112 f8bc 0473 89bc
00000030: 930f 12bc c2d7 063d 4a15 a23d d0fe bfbb
00000040: 921c 693d 4677 443d 332f acbc 795a a5ba
00000050: 388f 423c 7cdd 733d 638e 3f3d 36be 3d3d
00000060: c7c6 5a3d 2006 7e3c 5c11 aebc 877b b73d
00000070: d6a6 43bd 800a 08bd 4ddb 9dbd b893 d2bc
00000080: cae9 9abd 6e16 813c c736 b0bd 7977 71bd
00000090: 2e96 6d3d 4c3e 383a 2034 723d c0ee 203b
000000a0: 6e06 e7bc fbe9 a53d 039f 863c e2b9 3dbd
000000b0: 02c6 203d 31c4 a43d 8f64 0c3d 703c 92bc
000000c0: 9f04 9dbd 5acb 973d 301f 3dbd 98e5 f03c
000000d0: 0e84 a4bd 4dd2 69bd 567e 583d ec28 ac3d
000000e0: 288a 9fbc b6fb 2c3d 3c48 023d a298 05bc
000000f0: 2080 b73b 88db 09bd 5c1b b63c 0003 a83d
00000100: 39e7 d83c 6930 91ba 8483 2b3d a1b5 25bd
00000110: fdb5 573d 6ef9 963c 468e b23c 8235 15bd
00000120: 0077 90ba c9e3 aabd 32c6 51bd 5766 a43d
00000130: ba34 debc 0006 043d 817a a9bd 19f5 9cbd
00000140: 606b 7f3b 7d93 a33d a4c0 b43c 6ba4 87bd
00000150: 34ff 563c 22b7 99bd 317b 51bd 48df afbc
00000160: d47b 97bc 7696 863d 74ac 69bd 11e5 963d
00000170: a7f2 93bb 7444 e8bc 2006 293b 680c 343d
00000180: 600f 6a3c c5b5 9a3d 9d46 a5bd 5f9a a0bd
00000190: aafa 34bd a69f 9a3d dc7d a03d 00dd b4b9
000001a0: 022d a1bd 44a1 83bd 6adf ba3d 10fe a2bd
000001b0: d3cd 97bd 6150 063c 6f07 83bd 7a23 4c3d
000001c0: d753 2abd ba4b de3c ee1b 5fbd 0f8b 943d
000001d0: 7e68 54bb a47b 6c3c ef1a a33d 19d8 a73d
000001e0: 6051 19bc 2873 613d b011 70bd 03c4 953d
000001f0: a3ef ab3d 5f55 b83d f299 383b 3c10 793d
-0.015146531 0.030409476 0.0744031 -0.06673791 -0.050488077 0.06127733 -0.079459906 -0.02703911
0.032149848 0.0059578815 -0.03028229 -0.016778477 -0.008914846 0.032920606 0.07914217 -0.0058592334
0.056912012 0.04796531 -0.0210186 -0.0012615464 0.011874966 0.059537396 0.04676665 0.046323977
0.053412225 0.01550439 -0.021248512 0.08959108 -0.04776653 -0.03321314 -0.07707844 -0.025705203
-0.07564123 0.015757766 -0.08604198 -0.05895183 0.05800455 0.0007028326 0.05913174 0.0024556369
-0.028201308 0.08101269 0.016433245 -0.04631985 0.039251335 0.08045233 0.034275588 -0.017851084
-0.07666897 0.07411833 -0.04617232 0.029406354 -0.08033 -0.057085324 0.05285486 0.08406243
-0.019475058 0.042232238 0.03180717 -0.008154066 0.0055999905 -0.033656627 0.022229843 0.08203697
0.026477443 -0.001107705 0.04187347 -0.040456418 0.052663792 0.018429484 0.021796357 -0.036427982
-0.0011021793 -0.08344228 -0.051214404 0.08027332 -0.027124751 0.032232285 -0.08275319 -0.07663936
0.0038973913 0.079871155 0.022064514 -0.06623157 0.013122369 -0.07505633 -0.051142875 -0.021468773
-0.018491663 0.06571667 -0.05704923 0.0736791 -0.0045150104 -0.028352953 0.0025791004 0.043957144
0.014285892 0.07554201 -0.08070109 -0.07841944 -0.044184364 0.07549982 0.07836506 -0.00034496933
-0.07869913 -0.06427243 0.09124644 -0.07958615 -0.07412305 0.008197875 -0.06397902 0.04983852
-0.041583862 0.027135719 -0.054469995 0.07253086 -0.0032410915 0.014433775 0.079641216 0.08195514
-0.00935778 0.055041462 -0.058610618 0.07312777 0.083953165 0.09000658 0.002816793 0.060806498

bias_hh_l0 f4 [128]
00000000: cd13 af3d b101 2b3d bbc6 6ebd 96bc 9c3d
00000010: 55df 12bd b2d4 eabb 84c3 abbd 6973 d73b
00000020: 2e33 fe3c 4b91 8fbd 3788 7b3c efb9 51bc
00000030: 1aa1 8d3d 13a7 05bc 713d 37bd 24b3 92bd
00000040: 5932 a4bd 470a 23bd 20f0 313d 857a 0bbd
00000050: 5859 32bc 128d b53d b7ff 263d dc56 86bd
00000060: f8b3 6dbb a3eb 6dbd 5f46 85bd 2bc3 5c3d
00000070: fa74 88bd 4894 4b3c 14a0 81bc 760a eabc
00000080: 471a 9ebd bac9 113d 248a 83bc b052 ca3c
00000090: 427d 48bd cec0 873d 2365 b0bc 481a a7bd
000000a0: 959e 3dbd 95f4 84bc 1277 5cbb 4833 e5bc
000000b0: f93a 953d 09bc 5dbd 5ba6 00bd 944a f8bc
000000c0: 5d70 a1bd f330 9ebb 8255 cb3c 7caf 28bd
000000d0: 85f7 70bd 0015 7cbc 945d 8abd 0545 28bd
000000e0: 920b 1dbd 1a71 753d 9023 e4bb e938 e03b
000000f0: 591a 9bbd e036 b3bc 6850 a73c 635d ec3b
00000100: 2f19 673c 106e 943d 8b56 753d e09b 3d3d
00000110: 599f 7a3d 402c 8d3c c722 5c3d 2823 9abd
00000120: 5d87 97bd b07a 5dbc 0805 8dbd 0d8e a43d
00000130: 1e00 29bd 001a a13c 2ab2 413d 41e4 1dbd
00000140: 60b6 07bc e713 7a3d b4ba 71bd e08b 333d
00000150: 6482 233c e5e2 ab3d 8ba6 5a3d 2c74 083d
00000160: fdaa 67bd 53fe 7b3d 15fd 223d 7123 943c
00000170: e3e0 3bbd e46f c7bc 917a a0bd 74f6 8b3d
00000180: a0a5 18bc a637 26bd 40ba d1bb 45d6 e93c
00000190: 40a8 87bc 991b 80bc fc24 edbc ec86 9bbd
000001a0: 36ad a7bd 017f a4bd 86c3 323d eacf 4a3d
000001b0: 4efb e4bc 0c97 60bd 8efb 7d3d e578 f9bc
000001c0: f8b9 90bd 66ab 653d e8a4 a43c 017c 2c3c
000001d0: 4bc3 503c 9281 563d 6008 5a3d 0483 83bc
000001e0: d5e7 37bd b020 873c 1ce6 99bd 6f52 b23d
000001f0: b494 bd3c e8ab 81bd 9b7a 993d 28ca 2cbd
0.085486986 0.04174966 -0.058294993 0.076531574 -0.035857517 -0.0071664685 -0.08386901 0.0065750373
0.031030264 -0.07010134 0.0153523 -0.012800678 0.06915493 -0.008157509 -0.04473633 -0.071630746
-0.080174156 -0.039804723 0.04344189 -0.03405239 -0.010885559 0.08864798 0.040771212 -0.06559536
-0.00362706 -0.05808605 -0.06507563 0.053897064 -0.066629365 0.01242549 -0.015823402 -0.028569441
-0.07719856 0.035592772 -0.016057082 0.024697632 -0.04894758 0.066285715 -0.0215326 -0.081593096
-0.046293814 -0.016229907 -0.0033640307 -0.027978554 0.07286639 -0.054134402 -0.03140865 -0.030309
-0.0788276 -0.0048276125 0.024821047 -0.04118298 -0.058829803 -0.015385866 -0.0675613 -0.041081447
-0.038341112 0.059922315 -0.006962247 0.0068427217 -0.07573385 -0.021876752 0.020424083 0.007213281
0.014105125 0.07247555 0.059896987 0.046291232 0.061187122 0.017233014 0.053744104 -0.07526237
-0.07398865 -0.0135180205 -0.06885725 0.080349065 -0.041259877 0.019665718 0.04728905 -0.038547758
-0.008283228 0.061054137 -0.059015945 0.043834567 0.009979818 0.08392886 0.053381484 0.033313915
-0.05655955 0.06152184 0.03979214 0.018083306 -0.045868766 -0.024345346 -0.07835878 0.068341166
-0.009316832 -0.040580414 -0.0064003766 0.028544554 -0.01655972 -0.01563816 -0.0289483 -0.07594094
-0.08187334 -0.080320366 0.043643497 0.04951469 -0.027951863 -0.05483155 0.06200748 -0.030453155
-0.07066721 0.05607166 0.020098165 0.010527612 0.012741874 0.05236966 0.053230643 -0.016053684
-0.044898827 0.016495079 -0.07514593 0.08707129 0.023142196 -0.06331617 0.07494088 -0.04218498

weight_ih_l1 f4 [128, 128]
00000000: acf5 88ba a1d6 b7bc 65f8 213d 3e8a 3d3d
00000010: c761 82bd e92a 3c3d 702f 063d 3683 42ba
00000020: f560 b93c b5dd a93d 3fee 093d 17af bd3d
00000030: 759b bbbc 38dc a93c 912c a73b 0084 373c
00000040: b266 4f3d bee7 7d3b 62ab 743d 4283 833d
00000050: ae8d 663d d3ba 25bc 2abd 7c3d 226a 9dbd
00000060: 1d45 f2bb e8c4 1cbc dff0 9d3d 1122 7d3d
00000070: cc79 d83c 63fc a23d 889e b73c 6065 0bbb
00000080: a524 b23d ff0c 8e3d c9b3 9ebd ad1b a5bd
00000090: bb02 af3d 9dac 58bd c40f a23b e05b 743c
000000a0: 994f 903d a30d 8ebd aa65 c53c a6e1 75bd
000000b0: 1a8e 87bd 77a9 9e3d 1ad9 2cbd a863 7abc
000000c0: da73 18bd f50b 81bd 0cd2 60bd 5cf1 143d
000000d0: 0865 1e3c 2772 903d 60b5 083d 1dfa 1cbd
000000e0: 11cf 47bd 1ba1 763d 9402 c23c ca5e 6b3c
000000f0: b0ab e0bb 35f0 b3bd 5261 5a3d 6928 3dbd
00000100: baff 04bd 3a68 f53c 5a5b 0bbb cacb 2b3d
00000110: 1419 4e3d 17ee bb3d fc99 6c3d 75d1 123d
00000120: fcda c0bc f106 a7bd b43e 99bd 411e c3bc
00000130: d82e 133d 3a56 0c3d f4c5 d63c 2f97 acbd
00000140: 5077 1ebd 6ce7 a63c 3378 923d 1c5d 40bd
00000150: 3c73 31bc 1732 a13d c879 393d 27e1 9c3d
00000160: 7fa7 b2bd 7275 cebb 5d6a 1c3b 5ebb 8e3d
00000170: 0f9d 0abd 5128 9c3d 407e 21bc 9b17 223c
00000180: 298f 983d 43ff a13c 5b49 843d d785 b23d
00000190: e69a 333d d9d0 63bd b2bd a53d f495 9bbd
000001a0: 8673 07bd 00f0 5e3a a23e 423d 2001 f9bc
000001b0: dfb5 b33d d2dd b93a 40c1 443c 805c 2bbd
000001c0: 6829 e73c 6af2 b7bc 2543 2ebd bdae c03c
000001d0: 93d2 8fbd dca9 103c 5ee9 863d 74c1 cb3c
000001e0: 1c69 83bc 0ee6 0dbd 8801 1fbc e8a0 433c
000001f0: b493 21bd f72b 8a3d b8cd 8abc 1326 4a3d
00000200: fca9 8d3c c60e 643d 8091 663b 068e 71bd
00000210: 7d00 19bd 90f5 8b3c 6473 b93c 40d8 96bc
00000220: d3ef 8a3d ca7b f8bc 80e2 423b dc32 13bd
00000230: 72cc 41bd 60eb 23bc 6cef acbc 3412 a4bc
00000240: 1ba4 9e3d d86b 9cbd ec18 55bd 24c0 efbc
00000250: c40e 85bd 10ea 91bd b05e 5e3c 4eaf f2bc
00000260: 8014 133a efd2 903d de8a 7a3d fa30 8fbd
00000270: 44d6 f13c ef6d 9a3d 4019 963b c0f0 8dba
00000280: 4783 853d 808d 303a b4ba 7ebd f899 643c
00000290: 66cc 4abd d0b9 b2bc a205 5bbd b0b0 77bc
000002a0: 5cec e2bc 763d eabc 80be cd3b a21f a2bd
000002b0: bcf5 d93c 5a70 6d3d 6f1c 9f3d 3ef0 b2bd
000002c0: c97d 97bd 4406 d13c 9d68 b03d 8a6c 84bd
000002d0: 399f 04bd 808a b4ba 5012 7b3c 8a9f 87bd
000002e0: 1018 463c e42f a4bd 8e24 573d 88f3 afbd
000002f0: 208d 72bd 6055 5a3c 24bb f33c ccae b4bd
00000300: 2421 b53c 1a5b 383d c69e 0abd ba30 90bd
00000310: 0f67 b23d 70ac efbb f705 a23d 9078 89bd
00000320: 2c7b e33c a76f b23d 60f1 053c 10fc 663c
00000330: 61e3 853d 388c 96bc 5faf 84bd a93d 53bd
00000340: 85a9 b33d 92a1 323d 8fd1 3bbd 6639 65bd
00000350: c4eb 20bd 28e4 723c ff68 b03d 0899 b73c
00000360: 7085 e93b c36a a2bd 04d9 cf3c 40bc 31bc
00000370: 605a d1bb aea4 65bd 5f92 a53d 0f81 8bbd
00000380: 7770 883d b1d4 82bd eb59 a23d 688e 5d3c
00000390: f88d 733c c31a 943d c0bf c13a 08c7 06bd
000003a0: c8e8 8dbd 8171 853d 303a 27bc 92bc 5e3d
000003b0: 70c7 073d a564 8f3d f245 4a3d a66d 74bd
000003c0: d8d7 54bc 3cd6 c13c a41e 75bd 21ed 9fbd
000003d0: 80bb 3f3b 300b 96bd 6d14 8d3d 5955 b03d
000003e0: 026a 1d3d 006e d7ba 05d5 813d 2378 5cbd
000003f0: b2c2 673d dbfb 923d 0949 69bd e65b 83bd
-0.0010449192 -0.02244121 0.039543528 0.046274416 -0.06366306 0.04593936 0.032760084 -0.00074200646
0.02262924 0.082942404 0.033674475 0.09261911 -0.022901276 0.020734891 0.0051017483 0.011200905
0.050635047 0.0038742865 0.059733756 0.0642152 0.05628746 -0.010115343 0.06170384 -0.07686259
-0.007393493 -0.0095684305 0.07711958 0.061800066 0.026425265 0.07958295 0.02241446 -0.002127014
0.08698396 0.069360726 -0.07749135 -0.08061919 0.08545443 -0.05289899 0.004945727 0.014914483
0.07046432 -0.06936195 0.024096329 -0.06002965 -0.066189006 0.077471666 -0.04219923 -0.015282549
-0.03721986 -0.06301109 -0.054887816 0.03636299 0.009667642 0.07053023 0.033376098 -0.038324464
-0.04878146 0.060212236 0.02368287 0.014365861 -0.0068564042 -0.0878605 0.053315468 -0.046181116
-0.032470442 0.029956926 -0.0021264167 0.041942395 0.050316885 0.091762714 0.05776404 0.035844285
-0.02354192 -0.08155621 -0.07482663 -0.023818137 0.035933346 0.03426192 0.026217438 -0.084272735
-0.038688004 0.020374022 0.071518324 -0.046963796 -0.010830697 0.07870882 0.045282155 0.07660132
-0.087233536 -0.0063006217 0.0023867108 0.06969331 -0.03384119 0.07624877 -0.0098567605 0.009893323
0.07449181 0.019775039 0.06459304 0.08716934 0.043848895 -0.055619095 0.08092822 -0.07596961
-0.033069156 0.0008504391 0.047423013 -0.030396044 0.087749235 0.0014180487 0.012008965 -0.04183626
0.028217986 -0.02245446 -0.042544503 0.023520822 -0.07022586 0.00882956 0.0658748 0.02487252
-0.016041331 -0.034643225 -0.009704955 0.0119402185 -0.0394475 0.06746667 -0.016943797 0.049352717
0.017292969 0.05567815 0.003518194 -0.058973335 -0.03735398 0.017084867 0.02263803 -0.018413663
0.06784024 -0.030332465 0.0029737055 -0.035937175 -0.047314115 -0.010004848 -0.021110259 -0.020028211
0.077461444 -0.07637757 -0.05202572 -0.029266424 -0.06496957 -0.07124722 0.01357238 -0.029624607
0.000561066 0.070714824 0.06116759 -0.069917634 0.029521115 0.075404994 0.0045806468 -0.0010829195
0.0651918 0.00067349523 -0.062189773 0.013952725 -0.049511336 -0.021817118 -0.05347217 -0.015117809
-0.027700596 -0.02859376 0.006278813 -0.0791619 0.026606433 0.057968475 0.07769095 -0.08737229
-0.073970385 0.025515683 0.086137034 -0.06466015 -0.03237841 -0.0013774186 0.01532419 -0.066222265
0.012090698 -0.08016947 0.052525096 -0.08591372 -0.05921662 0.013326019 0.029752322 -0.08822402
0.02211053 0.045008756 -0.033842824 -0.07040544 0.08711063 -0.0073142573 0.07911294 -0.067124486
0.027768694 0.08712702 0.008175224 0.014098182 0.0653751 -0.018377408 -0.06478762 -0.051572476
0.08772568 0.043611117 -0.045854148 -0.055962943 -0.039287344 0.0148249045 0.086137764 0.022411838
0.0071265027 -0.079305194 0.025372036 -0.010848105 -0.0063889474 -0.056065254 0.08084559 -0.06811725
0.06662076 -0.06388224 0.07927307 0.013522722 0.014865391 0.07231667 0.0014781877 -0.032904655
-0.06929165 0.0651579 -0.010206744 0.054379053 0.033149183 0.07001618 0.04938311 -0.05967488
-0.012990914 0.023661725 -0.059843674 -0.078089006 0.0029256046 -0.073263526 0.068886615 0.08610029
0.038431175 -0.0016435981 0.063394584 -0.05382551 0.05658216 0.07176944 -0.056954417 -0.064140126

weight_hh_l1 f4 [128, 128]
00000000: 5330 35bd ac41 85bd 5f8b 383d 5f64 5cbd
00000010: 7a75 753d b840 36bd 489e 8d3d 3b89 823a
00000020: 3bd8 fe3c ad49 54bc 39a5 643d 95d3 883d
00000030: 24bd be3d 202f ca3b e454 43bd 0f6e e7bc
00000040: 5adb 1bbd 3b29 f53b 56bf 88bd ec65 923c
00000050: eb84 3a3d 27fd 513d a08a 74bb cfec b3bd
00000060: 6f2d 3abd c0db 6abc 0456 283d b8e1 163d
00000070: 9466 8bbd 2efc e1bc d82b e2bb deb1 1ebd
00000080: 8986 823d 4be5 0f3d eb72 a1bd 05b5 ac3d
00000090: d7ba 493d 580f 18bd 0488 3c3d cee2 c0bc
000000a0: a05f 5dbd 8c7f 4a3d 2ca7 6abd cd62 85bb
000000b0: 0c31 92bd a626 b4bc dedd 1fbd d4a2 8c3d
000000c0: f4ea 053d e5db 943b b088 7f3d 5267 933d
000000d0: 1a03 443d 25c5 9ebd b31d af3d e4fa 12bd
000000e0: c714 9a3d 6c52 babc 6545 9f3d 7ed9 1bbd
000000f0: e3c3 673c e9c9 3fbc 89bc a7bd 68db aebd
00000100: 2735 483b d98b b43d 1853 82bd 3681 233d
00000110: a545 b13d e875 573c e066 60bd 2f35 993d
00000120: b45e 34bd 101a 1cbc 6f58 37bd 68ee 9abd
00000130: a761 b13a 9ca0 78bd ccfd 8abd 669c b93c
00000140: 4870 d5bc e110 13bd 004a 6fbd 66c0 5dbd
00000150: 2e5f 2cbd 2cb5 6c3d 164f a33d e4dc 603c
00000160: 9331 a23d 6990 b73d 0bfa 973c 26a5 58bb
00000170: 2627 1dbd bec8 26bd c876 1d3c 3551 5dbd
00000180: edf3 a3bd 9cd8 adbd 1060 553d 0048 b0b9
00000190: 0aa4 643d 6a5a 1e3d 62e9 06bd 62a5 3dbd
000001a0: d1a9 963b a868 dabc 7aad 3dbd 1690 b4bc
000001b0: d760 4c3d d6a4 7fbc 89e8 423d db49 973d
000001c0: 6d4e 7b3c ec2e 05bc 88c1 503d 1a44 8cbd
000001d0: 8f20 eebc f17a a4bd 863d 3ebd b5fb 63bd
000001e0: 36de be3c 85b1 383d 069a 273d 0ba5 38bd
000001f0: 9d4e 8cbd 0ca0 d8bc 7f8d 94bd d070 8abd
00000200: c040 753c b267 7f3d 6bb2 a33d 80a4 1ebd
00000210: 2780 0bbd b027 de3b 97e0 12bd 00a7 c33c
00000220: ff82 47bd 4cbd 0a3d 001c b0bc a5a2 afbd
00000230: 42dc 7c3d a3ff abbd 8032 88bd 307e 803c
00000240: 7faf 35bd ae48 243d 2a31 303d 01c8 54bd
00000250: b51b 1ebd 4869 9abd 7eb9 153d 44ab 8ebc
00000260: 301b f83b ae3f 0e3d 27a6 60bd ff15 a63d
00000270: 6006 8dbd 3e21 4e3d aaa1 8fbd 48a7 9fbc
00000280: c0be efbb 809c 60bb 60cf f63b a202 5f3d
00000290: f904 02bd 46ef 85bd c2b8 183d d682 053d
000002a0: bbb3 b33d 00a2 873a 3943 933d b019 87bd
000002b0: 55e8 9abd 1d7a b1bd 10d6 76bc 895d a03d
000002c0: 4dce 19bd e77b 2ebd 7556 a33d 9f26 8dbd
000002d0: a3a6 8c3d 4e57 84bd eda3 9dbd 28a4 6bbc
000002e0: 636d b03d a2d7 a3bd 2bc8 26bd 7b09 a63d
000002f0: 9515 b0bd 275f a33d d65f 5e3d 04a2 f73c
00000300: 805b c8ba 37bc 903d e802 2cbc 80e4 a8bc
00000310: 0814 b63c 71f1 20bd 40c4 aabc 1817 6ebc
00000320: 91d3 943d 3887 563c c2c2 183d 2455 bd3c
00000330: 3b12 903d 0878 fc3c e816 24bc b645 063d
00000340: e8c3 253c 58e4 79bc 9940 68bd 6b47 b13d
00000350: 309f acbb c0b1 333b 5eba 0d3d f057 b6bc
00000360: 8428 bf3c a440 bc3c fd65 ac3d 8312 923d
00000370: 4c88 3bbd 8601 1c3d f659 743d a98c aa3d
00000380: 4d3b 45bd 00c8 dc3a 5764 01bd 40c4 70bc
00000390: e5db 29bd 6c25 28bd 00a7 d63a 2e8d 52bd
000003a0: 7f8b 9b3d 1406 c9bc f65c 1e3d 8532 b4bd
000003b0: b8f9 8ebd 6dea 843d b2ed 583d 58e4 163c
000003c0: 00b1 0b3a e04a c0bc 4752 813d 40ca 1fbc
000003d0: 588e 8fbd 9f95 a73d ac6e 59bd 230f b33d
000003e0: a543 813d 29a5 03bd e4f3 9cbd d491 8fbd
000003f0: c037 9f3b c8df 88bd 46ba 413d 69cd 80bd
-0.04423554 -0.065066665 0.04505479 -0.05380666 0.059926488 -0.044495314 0.069149554 0.0009959111
0.031108966 -0.012957019 0.05582163 0.06680981 0.093134195 0.0061701685 -0.04768838 -0.028250722
-0.038050987 0.0074817217 -0.066771194 0.017870866 0.045536917 0.051266816 -0.0037314072 -0.08785402
-0.045453485 -0.014334619 0.041097656 0.036836356 -0.068066746 -0.027586069 -0.0069021992 -0.038743846
0.06373317 0.03513078 -0.07883247 0.08432964 0.04925045 -0.037124008 0.046028152 -0.023545649
-0.054046273 0.049438044 -0.057288334 -0.004070616 -0.07138261 -0.021991085 -0.03902995 0.068669945
0.032694772 0.004542815 0.062386215 0.07197441 0.04785452 -0.07752446 0.085505866 -0.0358838
0.07523494 -0.02274438 0.07776908 -0.038049214 0.014145824 -0.011705854 -0.08190257 -0.08537942
0.003054926 0.08815736 -0.06363505 0.039918147 0.08655862 0.01315067 -0.05478561 0.07480847
-0.04403563 -0.009527698 -0.04476207 -0.07565004 0.0013533131 -0.060700044 -0.06786689 0.022657584
-0.026054516 -0.03590477 -0.05842018 -0.054138564 -0.042082958 0.057789966 0.07974069 0.013724539
0.07919612 0.08963091 0.018551847 -0.003305742 -0.038367413 -0.040718786 0.009610839 -0.054032523
-0.080055095 -0.084885806 0.052093565 -0.0003362298 0.055820502 0.038660444 -0.032937415 -0.0463003
0.0045978804 -0.026661232 -0.04630802 -0.022041362 0.04989704 -0.015603265 0.047585044 0.07387134
0.015338522 -0.008128863 0.050965816 -0.06848927 -0.02906826 -0.08031262 -0.046445392 -0.05565997
0.023299318 0.04509117 0.040918373 -0.045079272 -0.06850932 -0.026443504 -0.07253551 -0.067597985
0.014969051 0.06235475 0.07993015 -0.0387311 -0.034057762 0.0067796335 -0.035858717 0.023883343
-0.048708912 0.033871934 -0.021497726 -0.08575944 0.06173349 -0.08398368 -0.06650257 0.01568517
-0.04435682 0.040108375 0.043015637 -0.05194855 -0.038600642 -0.07539612 0.036553852 -0.01741565
0.0075716004 0.0347287 -0.054845955 0.08109664 -0.068859816 0.05032467 -0.07013257 -0.019488946
-0.0073164403 -0.0034272969 0.0075320452 0.05444587 -0.031743024 -0.065397784 0.037285574 0.032595478
0.08774515 0.0010347962 0.07190556 -0.065966964 -0.07563845 -0.086658694 -0.015065685 0.078303404
-0.03755026 -0.04259863 0.07975475 -0.06892132 0.06867721 -0.064619645 -0.07697282 -0.0143824
0.08614614 -0.08000113 -0.04071824 0.08107277 -0.085978664 0.07977133 0.054290615 0.030228622
-0.0015286058 0.07067149 -0.01049874 -0.02061677 0.022226349 -0.039292756 -0.020845532 -0.014531873
0.072669156 0.013093762 0.03729511 0.023111887 0.07034727 0.030818954 -0.010015227 0.032781325
0.0101175085 -0.015252195 -0.05670223 0.086562 -0.005268 0.002741918 0.03460156 -0.022258729
0.023334749 0.022980042 0.0841789 0.07132437 -0.04578428 0.03808739 0.059656106 0.0832761
-0.048152257 0.0016844273 -0.031589832 -0.014695227 -0.041469473 -0.041051313 0.0016376674 -0.05140417
0.07594966 -0.024539031 0.038662873 -0.08798698 -0.06981224 0.06490026 0.05296106 0.009209715
0.0005328804 -0.023473203 0.06314521 -0.00975281 -0.07009572 0.08182835 -0.05308406 0.087431215
0.0631173 -0.03213993 -0.07663706 -0.070102364 0.004858941 -0.06683308 0.047296785 -0.06289179

bias_ih_l1 f4 [128]
00000000: d0c5 aa3d fca9 c0bc 5a71 9fbd 5667 a33d
00000010: c8cd 86bd 6f24 4abd d0aa 773d 6597 86ba
00000020: 9285 33bd 07ed 473d b362 bb3c d4f4 c8bc
00000030: b0bc 62bb be1d 0bbd 41a7 a6bd 4b14 a33d
00000040: b79e 2cbd 980d 743c 9f7e 9cbd 8329 1c3d
00000050: f5d8 68bd 8801 9b3c ede1 30bd 48f4 38bc
00000060: 094e c53d 5607 493d d34e fd3c 9da7 6f3d
00000070: 78af 3e3d 4949 983d 4696 05bc e037 15bc
00000080: b96d 74bd ec5e 893d 5aed 95ba bbf6 be3c
00000090: 90f4 8bbd 6480 a6bd 909a 393d fa70 893d
000000a0: 7066 1bbc 4a24 6e3d 98fc 383d d6d6 653a
000000b0: b5f2 7a3b 07b6 e1bc 9dd5 943d 7f32 28bd
000000c0: e481 9abc 2060 873d a382 d6bc b87c a73d
000000d0: bd7a a3bd 459f 47bd 7470 0a3d 5f3f fbbb
000000e0: 12e3 c13d c885 4fbd 84d7 e13c 85e6 8bbc
000000f0: 2ef2 e13c 0a12 923c a878 5f3d 246e 82bd
00000100: 5399 6a3d e16e 973d aac3 e0bc 07c5 ad3c
00000110: 3dcc aabd abde 81bd a175 44bd 0ef3 1c3c
00000120: 207a 333c 448b bbbc a00a 5a3c 5c20 90bb
00000130: 9820 e73c 1889 b33d 0994 22bd d618 f0bc
00000140: f467 e6bc ff39 07bd b600 593d b5ec 82bd
00000150: b63d ff3c ef0d 1b3d 13eb a63d 88ff b03d
00000160: 1356 943d 97cc 0a3d 4a3b 9f3d dd4e ecbc
00000170: 4113 99bd b019 b0bd 2f02 acbd 5a28 703c
00000180: fafb a63d 1654 adbd 9083 a6bd c82e 2cbc
00000190: fed1 a9bd 7f16 78bd 06ec 56bd 1ed9 973d
000001a0: 53a5 eebc 20d9 a3bd d4be a2bd a4f6 923d
000001b0: ea67 74bd 84d5 d4bc afde 173d 4c85 ac3d
000001c0: eba2 9abd af43 6f3d c7de 563d fe5f a7bd
000001d0: 565c 813d 4e8d 45bd 4c22 983d 367d 223d
000001e0: 207f bd3c 62b1 04bd 9c4f 08bd 032f cc3c
000001f0: 9749 83bd 307c 333d efae 753d f138 6c3d
0.08338511 -0.023518555 -0.07785292 0.07978694 -0.065822184 -0.049351152 0.060465634 -0.0010268508
-0.043828554 0.04881003 0.022874212 -0.024530806 -0.003459733 -0.03396391 -0.0813737 0.07962855
-0.04214355 0.014895819 -0.076413386 0.038125526 -0.05684753 0.018921629 -0.04318421 -0.01128871
0.09634025 0.04907926 0.030921375 0.058509458 0.04655406 0.07435853 -0.008153504 -0.00910756
-0.059674952 0.06707558 -0.0011438534 0.02331101 -0.06833756 -0.08129957 0.045313418 0.06711002
-0.009484872 0.058140077 0.045162767 0.000876767 0.0038291637 -0.027552618 0.07267306 -0.04106378
-0.018860765 0.06610131 -0.02618534 0.08178085 -0.07982395 -0.048735876 0.03379865 -0.0076674665
0.09467138 -0.050664693 0.027568586 -0.017077694 0.0275813 0.017830867 0.054558426 -0.06368664
0.057275128 0.07394195 -0.02743705 0.021212114 -0.083397366 -0.06341299 -0.047963742 0.009579433
0.01095441 -0.022893555 0.013308197 -0.004398389 0.028213784 0.08766383 -0.03969196 -0.029308718
-0.02812574 -0.033014294 0.052979194 -0.063928045 0.031157356 0.037855085 0.081503056 0.08642489
0.0724298 0.03388652 0.0777498 -0.028846199 -0.074743755 -0.085986495 -0.08398854 0.014658058
0.081535295 -0.08463304 -0.08130562 -0.0105092 -0.08292006 -0.06056833 -0.052471183 0.07414459
-0.029131567 -0.08000398 -0.07946554 0.07175949 -0.059669413 -0.025980718 0.037077602 0.08423862
-0.075506054 0.058414157 0.05245855 -0.08172606 0.0631644 -0.04823046 0.074284166 0.03967019
0.023131907 -0.032395728 -0.033279046 0.02492476 -0.064105205 0.043819606 0.059981283 0.05767149

bias_hh_l1 f4 [128]
00000000: fc4f 85bd 60f1 4f3c 5978 673d 6224 f93c
00000010: 765d a2bd 6301 b83d 2623 04bc 8045 6e3d
00000020: 97f1 bc3d a6c3 3d3b a29f 0e3d a738 81bd
00000030: 2fa9 583d 8caa 95bd 303a 8d3b 8897 20bd
00000040: b472 74bd f4dc a7bd 2c35 433d 306c a03d
00000050: abbf 923d 6e92 133d aa3e 55bd 7fae 4bbd
00000060: 51b7 993d a7ec b2bd 6cd2 4e3d 443d 33bc
00000070: f73f a0bd 84f2 a6bd 2026 963d 7b21 47bd
00000080: 856a 28bd b811 94bd e654 76bd 4c78 353c
00000090: db2e 26bd c03b c1bb ad5d af3d fc96 643d
000000a0: a42a 4dbd fd30 9cbb 8a30 acbc e6ae be3b
000000b0: b310 103c a717 843d 64a6 4abd 4a6d 253d
000000c0: bca6 e5bc eebe 0bbd b3b5 63bd bad4 9e3d
000000d0: 0c9d 853c a70d 253d 9621 fb3c 4004 74bc
000000e0: 17d3 3ebd ce5e d5bc b563 02bd 8964 353c
000000f0: fbf7 80bd 76c3 a33c c7bc 5abd cb5f 19bd
00000100: 2e7c 18bd 104b 96bd da22 703d 7b9f ad3d
00000110: 1604 76bd 90c1 57bc 19fb 113d 4618 a33c
00000120: 50f7 523c 3510 813d 7f1f aabd be49 883d
00000130: 802d 193d 3463 f6bc 47d7 88bd 839b 9a3d
00000140: cf16 2b3d 1331 9bbc 536c 2ebd 73e0 b3bd
00000150: 4d71 23ba 0d61 eabc 8786 b13d 8cee bf3c
00000160: 1fcf 10bd ac0b 06bc 189a 90bc 4572 973d
00000170: 0aee 413c 0d78 43bd 4518 8a3d 8f9c 9cbc
00000180: 8c44 133c 46b5 92bd eb12 54bd 9293 88bd
00000190: 8c48 67bd c89e 0fbc acc4 c73c e82c 86bd
000001a0: 1ded 83bc ab5e 08bd 5096 6dbc 5b37 56bd
000001b0: 47f8 b4bd 4c7c a5bd 2373 563d 0a85 233b
000001c0: bf43 453d d4ba 8bbd e797 08bc 5c4a 83bc
000001d0: 1b81 8fbd e139 03bd 2e94 31bd 5580 9bbd
000001e0: f07d 803c af39 223d 056b 95bc 5425 4d3d
000001f0: 94e8 75bd 279e 0fbd a961 76bd e30f 51bd
-0.065093964 0.012691826 0.056511257 0.030412856 -0.079279825 0.089846395 -0.008065021 0.05817175
0.09225767 0.0028955727 0.034820206 -0.06309634 0.05289572 -0.0730792 0.004309915 -0.03920701
-0.059679702 -0.0819644 0.04765813 0.07833135 0.07165464 0.036028318 -0.052061714 -0.04972696
0.07505668 -0.08736544 0.050493643 -0.0109399 -0.078247 -0.08151725 0.073314905 -0.048615914
-0.04111721 -0.07229942 -0.06013956 0.011076044 -0.04057203 -0.0058970153 0.08562789 0.055808052
-0.050089493 -0.004766582 -0.021019239 0.0058191894 0.008793044 0.06449824 -0.04947509 0.04038743
-0.028033607 -0.03411763 -0.055593204 0.07755418 0.016310237 0.040296223 0.030655663 -0.014893591
-0.04658803 -0.026046183 -0.03183337 0.011071333 -0.062972985 0.019990664 -0.05340269 -0.03744487
-0.037227802 -0.07338536 0.058626987 0.08477684 -0.06006249 -0.0131687075 0.035639856 0.019909035
0.012876347 0.06301919 -0.08306789 0.0665469 0.037396908 -0.0300766 -0.06681686 0.07549193
0.0417698 -0.018944299 -0.042583775 -0.08783045 -0.00062348397 -0.02861073 0.08668237 0.023429178
-0.035353776 -0.008181494 -0.017651603 0.07394842 0.011836538 -0.04772191 0.0674291 -0.019117622
0.008988511 -0.071634814 -0.051775854 -0.06668772 -0.05646567 -0.008765884 0.024385773 -0.06551534
-0.016104275 -0.033293407 -0.014501169 -0.052298885 -0.08836418 -0.08080348 0.052355897 0.0024951124
0.04816031 -0.06822744 -0.008336998 -0.016026668 -0.07007047 -0.03203762 -0.043354206 -0.07592837
0.015685052 0.039605793 -0.018239507 0.050084427 -0.060036257 -0.035062935 -0.06015173 -0.05104054
